outputs/lpv_sindy_FD001_20251204_081206/lpv_sindy_model.npz (npz, 14456 bytes, 3 tensors)

coefficients f8 [120, 14]
0.014461383929461058 0.00951241716748274 0.013637160341152255 -0.010589125587471035 0.004434215270628133 0.008046669190438994 0.004665903807024674 -0.018565261254047737
0.00325635916565685 0.010071266795791237 0.015793014876582898 0.004089388076619803 -0.019371093214425966 -0.008245308737025225 -0.0013128634871872893 -0.0020724495517848397
-0.0022585163067862426 0.004387699498962858 0.0004880530620307462 0.0056470564103977255 -0.00022116875259062385 -0.0023882910596198753 -0.006605536522661537 0.0014405159158320407
0.0020554447972385747 0.0023086516741714037 0.006523004915961308 -0.0039065158970926946 0.0028019523551961792 0.003201556433500154 0.008571265335752412 -0.003671295576350286
0.005308343236661714 0.0020306600637273963 0.0021212077542981894 -0.0022661582495285874 -0.0013543528799216907 0.0020204618293699224 0.006477065423723649 -0.004839831216721197
0.004788492986192427 -0.003463992774061087 -0.002329404775481203 -0.015787702192415657 -0.002144038396708579 -0.005167564915434859 -0.008048418310564166 -0.0022023508805213655
-0.00565789555714974 0.00547178819711098 0.00557585622846123 -0.0015245612138880366 0.0009316867166853518 -0.008002511290644847 0.006977628639472589 0.0031662781562856587
-0.011123205001479636 0.0010263900282918832 0.004931200225405946 0.0016129159285226166 -0.0059220217423001905 -0.00033783036576498396 -0.004323718713435254 -0.0038711013714909327
0.0009369965275750203 -0.0023763461902214732 0.0016127788822458623 0.007573511014211407 0.005740882257870569 0.0032499140249297887 -0.00367520403700758 -0.003745408545647363
0.008097577611720719 0.007503824774833849 0.001389926787427943 -0.006239089465510689 0.006688811329251 -0.005484600664226633 -0.0015779988053665572 0.0011672438510377534
0.0038381601662896875 -0.0012829851519937344 -0.002687714903858325 0.0014584516288286265 -0.02386181045004651 0.0063631829883850285 0.010455530924384452 -0.011527904888700025
0.02370424934180015 0.007624597203664352 0.006155641215641596 -0.013089593901986999 -0.00707896116812769 0.006418020827877157 0.011281603577047614 -0.022754623207059545
-0.009216576165283798 0.010317431330170438 -0.005092545741182766 0.0012047330139895987 0.0025974093436235053 0.005809277537280797 -0.008128778545305863 -0.0012440579817826068
-0.0015300114250968667 0.0024895077924895798 0.006922016519465454 -0.001608924798354099 -0.008255063253272701 0.0022209882654679446 -0.00560963700179286 -0.006431604583640754
0.005342263950567888 -6.761055016410306e-05 0.0017452438620458835 0.003484058619077061 0.005322082776654453 0.0031331827692982856 -0.0005644472403010591 -0.0021783800524491337
0.00162762721551948 0.0 0.009365868707845927 -0.014808530825485144 -0.008537007345183449 -0.005748540284200195 0.007830442192714239 0.0066495680471087455
-0.010673392668998758 -0.0004838143210449421 0.0014916641166576833 0.0018595561395858234 -0.0062729093389809155 0.0013436280285185696 -0.001861446193339775 -0.002466501055335052
0.0028581050800538716 0.0067536685079429256 0.002520140148638099 0.004321912855324066 0.031570925450081506 0.0032017619005687034 -0.004201195455947368 0.007861557881385785
-0.02113133979208462 0.00987890748730689 0.0017515624733275964 0.003765038768958789 0.007588226965289884 0.01293510144272324 -0.0008264694743522433 0.034484280512250845
0.0008547594619040103 -0.015042760034484506 -0.0022195754264380837 -0.006241948413932689 -0.0022239090412146255 -0.0016228159786742078 -0.0015820990192131948 -0.0010558070191275352
0.004421453381581652 -0.004343783465058232 -0.0014154124392296052 8.490265015968785e-05 -0.000510250542437572 -0.0017611842758536653 -0.00503107197619966 0.0027494580410239357
-0.0009175336280214743 0.009971873723129287 0.004411996871564269 -0.004986371148441658 0.0042825619874904625 0.001967894330469337 0.0011211786688988636 0.004146414746299415
-0.0013429695321022336 -0.0027353275493759493 0.003965275941639811 0.002442617933606853 -0.008197056061941741 -0.00099030237597033 -0.008008237131969636 -0.01282177497363578
-0.0021622254701037214 -0.0009027249361396362 -0.0015880493557010739 -8.759569177983622e-05 0.00227836059503584 0.004497099417803945 -0.0031816761903721174 -0.00043673866067876565
0.0010568980770343365 0.0049224994123729885 0.0024143634185919078 0.003455818430911453 0.0026122461299034525 0.0002544410740328866 -0.0013269122712882364 -0.000809451562936264
-0.0033501143366703504 -0.00397323053382316 0.0011158195935193102 0.0021387931379749175 -0.003342390962863012 -0.0012627040626042231 -0.005425544979439199 -0.003733127325985865
0.0002895568990614754 0.0011626720319127784 0.0019081853576113485 -5.65003722791669e-05 -0.0007832100872892064 0.0019353735730388104 0.003746141374349488 0.0
-0.006038090686835315 0.0020435654091142522 -0.003262624787810899 -0.001493092941219556 -0.0026956653022374897 0.0023685150782880387 0.009857661759606968 -0.0007963322391298945
-0.006640381460690517 0.009541207858087982 0.005334668095286633 0.0014720383682411532 0.006950669928286131 0.0018122387284450123 -0.0008870114502025106 0.003918034090637048
0.003856749404511954 0.0034587598706962625 0.015940486988426133 0.023469309319618194 -0.0020915606511951726 0.001334823651043923 0.0012131022077780998 -0.0024885106107804824
-0.00017401866316864526 0.001490089838880993 -0.0002733887437594356 0.005047247452775503 -0.0017127785398540502 -0.002669823526172952 0.0063457844864434395 -0.0011304345836842971
-0.013012557054360661 -0.008774129579275956 0.004940389453148755 0.024970158717644908 -0.0005877616887408934 -0.02263935732606852 0.0019507177799043555 0.0032910129644977294
00000000: 4067 4118 ee9d 8d3f fd39 1f05 3f7b 833f
00000010: 808a 67ad cced 8b3f f83c bb60 c0af 85bf
00000020: 6ce1 2199 9c29 723f 5a09 1ea8 c57a 803f
00000030: e786 1e04 8e1c 733f 5319 b697 c502 93bf
00000040: 6159 db83 14ad 6a3f 2241 238c 3ea0 843f
00000050: dcc4 9949 0b2c 903f 4bb6 cbc0 08c0 703f
00000060: fbf9 5f0f 04d6 93bf c0b2 f79a eae2 80bf
00000070: 0614 766f 8c82 55bf b654 85e1 3dfa 60bf
00000080: 6ca9 9ab5 7380 62bf d7be a41d d6f8 713f
00000090: 2cab acf0 2bfc 3f3f 5e07 9f29 5e21 773f
000000a0: 3124 591e 31fd 2cbf b718 d2ff 9b90 63bf
000000b0: b3d8 6535 680e 7bbf ca09 dd2f f699 573f
000000c0: 8a18 da85 94d6 603f 368d 07ee 97e9 623f
000000d0: 433b 92cc ddb7 7a3f 941f 4f60 4700 70bf
000000e0: cb66 60b7 1ef4 663f d1a9 b385 263a 6a3f
000000f0: 1b4e 6bc2 cf8d 813f 3264 e6cd 4313 6ebf
00000100: 63f8 8e89 33be 753f b31d 0452 9aa2 603f
00000110: 77f1 d8bd 7e60 613f 0b97 3772 7a90 62bf
00000120: f07d e554 9130 56bf 63d5 5b2f 378d 603f
00000130: 2600 b402 b287 7a3f ad21 b44c eed2 73bf
00000140: 737a 5d4c 199d 733f 3497 b3f5 8460 6cbf
00000150: 6608 8eaa 1d15 63bf e1b3 61c2 a62a 90bf
00000160: 9689 72d9 5f90 61bf 48ed fca4 952a 75bf
00000170: 545d 6d6b b07b 80bf 366e 3220 aa0a 62bf
00000180: c140 1dc6 bb2c 77bf 4a37 b7f5 9569 763f
00000190: 7401 6082 b5d6 763f b146 7b23 79fa 58bf
000001a0: 8851 38fd 8d87 4e3f 29c8 3be2 9e63 80bf
000001b0: 7472 f6ec 9294 7c3f de7e 33a4 2af0 693f
000001c0: aa1a aa4d c3c7 86bf 7960 afe6 fdd0 503f
000001d0: 869b 2bfb bc32 743f 9349 824a 0f6d 5a3f
000001e0: 1d9f 599b b041 78bf ecd9 5f5f da23 36bf
000001f0: da79 8a67 bfb5 71bf f61f 48b9 49b6 6fbf
00000200: 7b92 a0b8 18b4 4e3f 73a1 7825 8f77 63bf
00000210: e2e5 8323 7c6c 5a3f d770 f3e1 6605 7f3f
00000220: c98b c358 c083 773f e4d7 754e 909f 6a3f
00000230: c273 a424 761b 6ebf 79bf d6e6 b0ae 6ebf
00000240: 8d3e 2778 7695 803f 3893 0ba0 54bc 7e3f
00000250: 0533 2286 c6c5 563f 2005 61d3 288e 79bf
00000260: 5b2e 881e ba65 7b3f 0a67 c047 0577 76bf
00000270: a97f c750 9bda 59bf 84a0 aa8a c61f 533f
00000280: 0945 838c 3471 6f3f 7263 38d1 3a05 55bf
00000290: f60c 9ef3 8b04 66bf fb89 1c83 30e5 573f
000002a0: b873 06fe 3a6f 98bf 1855 56ed 4710 7a3f
000002b0: 4275 0f9b b569 853f fa2b e833 f19b 87bf
000002c0: 1f0b cc3e ed45 983f e798 283a f83a 7f3f
000002d0: f53d 505b a836 793f e2cd d08d b7ce 8abf
000002e0: 13e6 4e2b d4fe 7cbf a6f3 f858 c849 7a3f
000002f0: a562 4733 cf1a 873f 5a4b 07ea fc4c 97bf
00000300: f419 b0e9 23e0 82bf 226c 2231 4e21 853f
00000310: e995 96d6 ebdb 74bf f7d1 4f39 04bd 533f
00000320: ed0e ed85 2947 653f 977d 9310 78cb 773f
00000330: 6270 1130 d2a5 80bf c23d 2616 f561 54bf
00000340: 678b 2142 5511 59bf 0900 a951 e064 643f
00000350: 09f5 2ca9 425a 7c3f af7a 00d9 515c 5abf
00000360: 68ff 97d5 07e8 80bf 5c27 e1fe bf31 623f
00000370: 122e 7177 21fa 76bf e086 8fb5 0658 7abf
00000380: 60c4 440f c5e1 753f 9a57 4368 44b9 11bf
00000390: f2f1 e753 1598 5c3f d5e8 70ba 998a 6c3f
000003a0: eeaf 8eb7 9bcc 753f d64e d9b0 c2aa 693f
000003b0: 3d11 fd37 ed7e 42bf 7b42 ace2 64d8 61bf
000003c0: 6f7e 496a c3aa 5a3f 0000 0000 0000 0000
000003d0: f4ff 639e 692e 833f b333 c75c ef53 8ebf
000003e0: af81 d3ba d97b 81bf 4978 5308 c88b 77bf
000003f0: 0723 0c29 6809 803f b4bd b7d4 933c 7b3f
00000400: e510 9b83 eedb 85bf 2c68 acaf 0eb5 3fbf
00000410: ee15 4026 7e70 583f ee84 7e33 8b77 5e3f
00000420: 5b1b 6347 9fb1 79bf 23c3 309c 9503 563f
00000430: f59c 83a1 787f 5ebf c067 c8ab a034 64bf
00000440: ad98 1d7b e169 673f 9d0b ea15 bca9 7b3f
00000450: f0af a1f0 1da5 643f 389d eaa5 dab3 713f
00000460: 1907 a078 102a a03f 8774 e1d4 943a 6a3f
00000470: 30fb 65d1 4535 71bf 4e24 f86f b819 803f
00000480: e887 4f35 74a3 95bf 7523 a084 643b 843f
00000490: 3bc9 8ce2 95b2 5c3f 8cec 2fcc dbd7 6e3f
000004a0: 45a2 682a d514 7f3f f9e3 55ed b77d 8a3f
000004b0: d2ae 86ae ed14 4bbf 126b 0d72 eca7 a13f
000004c0: 7452 a8f7 3d02 4c3f 1b14 1e13 bdce 8ebf
000004d0: 8706 c37b c92e 62bf 1e8d d144 2891 79bf
000004e0: 21d0 3d13 e037 62bf 32c0 9263 9596 5abf
000004f0: 16bf fae2 cdeb 59bf b0f7 8d27 604c 51bf
00000500: 267f cbda 3a1c 723f 60f6 c57e c9ca 71bf
00000510: 0f08 c288 ab30 57bf 057c 516c b841 163f
00000520: 8b9b 3eb2 4ab8 40bf 6045 7d37 f1da 5cbf
00000530: ef26 a019 769b 74bf 6c04 c60b 0886 663f
00000540: 4a4b 7176 d410 4ebf 595b 2a3c 226c 843f
00000550: a3f0 5f64 5012 723f d8e4 21d0 966c 74bf
00000560: 19ad de7a 978a 713f 70bc 5239 f91e 603f
00000570: af32 d16d 905e 523f 9335 b2bb d4fb 703f
00000580: 32e6 128e d200 56bf 8e13 cacb 6568 66bf
00000590: 3fc6 d2a7 e43d 703f a1e0 8684 8a02 643f
000005a0: f217 ad3d 9ec9 80bf 6130 5914 a139 50bf
000005b0: 83b4 a464 9f66 80bf 3aeb 8181 4d42 8abf
000005c0: 3b14 c8f5 83b6 61bf 2a04 fc09 9b94 4dbf
000005d0: 40d5 0403 c304 5abf 99bb 9e86 72f6 16bf
000005e0: 1046 d087 11aa 623f ec3d d2ee 8c6b 723f
000005f0: e53a e465 7510 6abf db32 b743 429f 3cbf
00000600: bab1 44ab f350 513f 7afe d95f 9d29 743f
00000610: f266 8d7d 49c7 633f d3a1 8864 604f 6c3f
00000620: 6b22 4ef6 4666 653f 1ca4 7b17 d0ac 303f
00000630: 297c d433 79bd 55bf cbf1 c8fe 2b86 4abf
00000640: 4b8a 71f0 b271 6bbf 0f5f 3cf3 3b46 70bf
00000650: 0ec9 642a 1648 523f d38c 93d2 5f85 613f
00000660: c0b8 077c 8061 6bbf 5d7e d129 2ab0 54bf
00000670: 3ea4 fea3 1839 76bf 1e79 dc78 ef94 6ebf
00000680: 12bd 6b69 f5f9 323f f231 9896 990c 533f
00000690: 3951 296d 8243 5f3f 0c60 5b02 5a9f 0dbf
000006a0: dea3 fbda 0aaa 49bf 2b61 e98c 8bb5 5f3f
000006b0: 1b7b 0c56 3ab0 6e3f 0000 0000 0000 0000
000006c0: c9dc 7ba0 65bb 78bf 5d24 2ed3 aabd 603f
000006d0: d195 6858 38ba 6abf a427 8e56 7c76 58bf
000006e0: abe0 0c4a 3815 66bf d37e a4d9 2267 633f
000006f0: 2af7 faf6 4030 843f 0b84 3f76 1e18 4abf
00000700: c35b 4ed3 f132 7bbf bef6 b73d 578a 833f
00000710: 277e 1110 ced9 753f b977 9a29 2d1e 583f
00000720: bbbc 6f40 4e78 7c3f 5bcd 8e84 14b1 5d3f
00000730: 1feb bb95 ca10 4dbf e9d9 8a44 5b0c 703f
00000740: d6ba f591 3098 6f3f 6d7f f090 8b55 6c3f
00000750: 0bbf 30f9 b352 903f da2a f3af 5608 983f
00000760: be02 0613 5222 61bf f29a 56fb a7de 553f
00000770: 1b7f c893 1ee0 533f 03b5 0cf6 c862 64bf
00000780: 533a 35ef 18cf 26bf 03f4 11c8 e369 583f
00000790: 84a4 aab6 b3ea 31bf 716e e92b 6cac 743f
000007a0: 88fb 17f4 e90f 5cbf fb62 6497 06df 65bf
000007b0: 2648 638d 09fe 793f 4add 4ce4 6285 52bf
000007c0: fff1 e2d7 53a6 8abf d237 c0bc 2bf8 81bf
000007d0: dda9 17b2 5f3c 743f f0d9 45fc c691 993f
000007e0: 21e1 909d 8042 43bf 6d8d 458d c52e 97bf
000007f0: 07e9 6044 e7f5 5f3f e40e b421 c1f5 6a3f

residual_mean f8 [14]
5.784553558438929e-07 3.804966855331284e-07 5.45486411838449e-07 -4.235650228045218e-07 1.773686105809486e-07 3.2186676665907737e-07 1.8663615161292302e-07 -7.426104482610148e-07
1.3025436702035524e-07 4.028506707711512e-07 6.317205943119237e-07 1.6357552336633137e-07 -7.748437271031575e-07 -3.2981234877516036e-07
00000000: c3ed a0c7 e468 a33e 74b1 cb1e e288 993e
00000010: feeb 224e b14d a23e dba7 b7ab ca6c 9cbe
00000020: b081 42cc 56ce 873e 90e1 9802 a199 953e
00000030: 29cd 6df3 c40c 893e 563b 42a5 f9ea a8be
00000040: 375c 6387 817b 813e 9b56 b1fc eb08 9b3e
00000050: 82a7 2447 7032 a53e 7e2e 0a85 69f4 853e
00000060: 62de 1460 dbff a9be abf1 c20c 2222 96be

residual_std f8 [14]
0.9359325373514451 0.9753649330583003 0.7558154062657649 0.7701895540171432 0.7351211407516944 0.5118789656021535 0.6859509252114755 0.7186087870406702
0.7331220825062552 0.49963000526725104 0.8530712990445186 0.9382376274510006 0.8796670349693081 0.8697506255067127
00000000: e6f9 e5ca 28f3 ed3f f4d1 2485 3036 ef3f
00000010: 662e 77ca a32f e83f bd2e 4790 64a5 e83f
00000020: 420e 44c5 1c86 e73f 9bb0 18ff 4f61 e03f
00000030: 2037 ce5a 4ff3 e53f 2da7 deda d7fe e63f
00000040: 7adf 0a71 bc75 e73f 1b48 2e21 f0f9 df3f
00000050: 9ead 512e 5c4c eb3f f1ea b8ea 0a06 ee3f
00000060: baff 517b 3b26 ec3f 8e42 8743 ffd4 eb3f
