outputs/lstm_FD001_20251204_075307/lstm_final.pt (torch, 751778 bytes, 30 tensors)

input_proj.weight f4 [64, 14]
0	0xbe823e79	-0.25438288
1	0x3dd06e63	0.101773046
2	0xbe583ea3	-0.21117644
3	0x3cbf3625	0.023341248
4	0xbe6cb4e4	-0.2311588
5	0xbdef5b9d	-0.11687396
6	0x3e11d7f3	0.14242534
7	0x3e325e3e	0.17418763
8	0x3e5ac52b	0.21364276
9	0xbe4a2fd0	-0.19744802
10	0x3dc42f8e	0.09579383
11	0xbe6eee4d	-0.23333092
12	0x3e6115c4	0.21980959
13	0xbe6aaed5	-0.22918256
14	0x3dafaec6	0.08578257
15	0x3e57ac2e	0.21061775
16	0xbe60e5fd	-0.21962734
17	0xbe1aef40	-0.15130329
18	0x3e8643db	0.26223645
19	0x3e7d48cb	0.247348
20	0xbdfef013	-0.12448134
21	0x3e8a08a1	0.26959708
22	0x3d57b091	0.05265862
23	0xbe2e5804	-0.17025763
24	0xbd1eae44	-0.03874041
25	0x3d802d06	0.062585875
26	0xbe1cb294	-0.15302497
27	0x3e01b515	0.12666734
28	0x3d923458	0.0713889
29	0xbcbaaefc	-0.022788517
30	0x3e4dcbc3	0.2009726
31	0x3e094d92	0.13408497
32	0xbe2a33d0	-0.16621327
33	0xbe356fa1	-0.17718364
34	0xbe3b0364	-0.18263012
35	0x3e5358db	0.20639364
36	0xbd88a6df	-0.06672453
37	0xbc62e5b8	-0.0138487145
38	0xbe664ddd	-0.2249064
39	0x3e32239a	0.17396393
40	0xbe401cc2	-0.1876097
41	0x3de8a194	0.113589436
42	0xbe2d409f	-0.16919182
43	0x3d12544b	0.03572492
44	0x3de42938	0.11140674
45	0x3cb21acf	0.021741299
46	0x3e45c4e2	0.19313386
47	0xbe272f5e	-0.16326663
48	0x3e696b7d	0.2279491
49	0x3e05e755	0.13076527
50	0xbdb04392	-0.08606638
51	0xbe2fe9cd	-0.17179032
52	0x3e46f9ae	0.19431183
53	0x3ca7e1c7	0.020493401
54	0x3e05294a	0.13004032
55	0x3ce68c98	0.028143212
56	0x3e81a590	0.25321627
57	0x3e3eb6cc	0.18624419
58	0x3e13b541	0.14424612
59	0x3e1d0453	0.15333681
60	0x3e88d98f	0.26728484
61	0x3e3b4fa2	0.18292096
62	0xbe268625	-0.1626211
63	0x3e15151a	0.14558831
64	0xbd8b4c04	-0.06801608
65	0x3e38ff3d	0.18066116
66	0x3e328709	0.17434324
67	0x3e4c0ab3	0.19925956
68	0x3e564f5f	0.20928715
69	0xbe267be3	-0.16258197
70	0xbe4e32ae	-0.2013652
71	0x3e2788f9	0.16360845
72	0x3e3a8cea	0.18217817
73	0xbe0d134b	-0.13776891
74	0x3d0a5ff9	0.033782933
75	0xbd076d0c	-0.03306298
76	0xbdf03f6b	-0.11730846
77	0x3e649fc1	0.22326566
78	0xbd5f4c1f	-0.054515954
79	0xbd9bdef3	-0.076108836
80	0x3e67a792	0.22622517
81	0xbe67bd8b	-0.22630899
82	0xbe4d9790	-0.20077348
83	0xbc923b5c	-0.01785057
84	0xbe8901ff	-0.26759335
85	0xbd86063e	-0.06544159
86	0x3e1d2b31	0.15348507
87	0xbe6e5cf7	-0.23277651
88	0xbe378746	-0.17922696
89	0x3e28b04b	0.164735
90	0xbe7044df	-0.23463772
91	0xbc7c0863	-0.015382859
92	0x3e8a2b15	0.26985994
93	0xbe8f81d9	-0.28028753
94	0xbd907b81	-0.070548065
95	0x3da08300	0.07837486
96	0x3df7f34f	0.12106954
97	0xbd143993	-0.03618772
98	0x3e8b89e6	0.27253646
99	0x3dc8e992	0.09810175
100	0xbe52d0cd	-0.20587464
101	0x3d337da3	0.04382099
102	0x3e48e348	0.19617951
103	0xbe0aac84	-0.13542372
104	0xbe44d767	-0.19222794
105	0x3e10fa27	0.14157926
106	0x3e3aef81	0.18255426
107	0xbe0f0f52	-0.13970688
108	0xbddc6075	-0.10760585
109	0x3d0c7e34	0.034300044
110	0xbe09a00c	-0.1343996
111	0x3e6a519a	0.22882691
112	0x3e201921	0.15634586
113	0xbe3c4f00	-0.18389511
114	0x3e76f635	0.24117358
115	0x3d59fb39	0.0532181
116	0x3d2ca8df	0.042153236
117	0xbe893ee2	-0.26805788
118	0xbd87279f	-0.06599354
119	0xbd6cc95c	-0.05780922
120	0xbc5dee9a	-0.013545657
121	0x3e231ba7	0.15928517
122	0xbe8ae865	-0.27130428
123	0x3e1c718b	0.15277688
124	0xbd7adb65	-0.061244387
125	0x3e83d513	0.257485
126	0xbde45321	-0.11148668
127	0xbd9a215e	-0.075258955
128	0x3e1fe8dd	0.15616174
129	0x3d15a7bf	0.03653693
130	0x3e237b28	0.15964949
131	0xbe03cb0c	-0.12870425
132	0x3e7899ef	0.24277471
133	0x3e467632	0.19381025
134	0x3e4b0139	0.19824685
135	0xbd94e23d	-0.07269714
136	0x3e509992	0.20371082
137	0x3e880ee1	0.26573852
138	0xbbf00dd8	-0.007325869
139	0xbe01e061	-0.1268325
140	0xbd39784c	-0.04528074
141	0x3e361d8f	0.17784713
142	0x3e3eb692	0.18624333
143	0xbe625828	-0.22103941
144	0x3e24a7a5	0.16079576
145	0xbdca43da	-0.09876223
146	0xbe4aac32	-0.1979225
147	0x3e023f43	0.12719445
148	0x3d7a3362	0.06108416
149	0x3e3a4228	0.18189299
150	0xbe83ae96	-0.25719136
151	0xbe3eea3f	-0.18644045
152	0xbe6b8c8b	-0.23002832
153	0xbdfc671e	-0.123243555
154	0x3e8589d1	0.26081708
155	0xbe89c726	-0.2690975
156	0x3d6445f8	0.05573079
157	0xbe635f5a	-0.22204342
158	0xbcaaa30e	-0.020829704
159	0xbd89ae6e	-0.06722723
160	0xbde4ea73	-0.1117753
161	0x3e498962	0.19681314
162	0xb94c0a7a	-0.00019458859
163	0xbe306c98	-0.17228925
164	0x3e05c36f	0.13062833
165	0x3bf5eeb7	0.0075052637
166	0xbe320b5e	-0.17387149
167	0x3d958508	0.07300764
168	0xbdad3251	-0.08456863
169	0x3e87dc44	0.26535237
170	0x3e619551	0.22029616
171	0xbe36a399	-0.17835845
172	0x3e6a8243	0.22901253
173	0x3e13085c	0.14358658
174	0x3b0c6f3b	0.0021428603
175	0x3b20d9e8	0.0024543945
176	0x3e7d6996	0.24747309
177	0x3e30d5e8	0.17269099
178	0xbd3942ac	-0.0452296
179	0x3def96b6	0.11698668
180	0x3deaf647	0.11472755
181	0x3e62d67f	0.22152136
182	0xbe91e057	-0.2849147
183	0xbe3dfe51	-0.18554045
184	0xbdebe3ae	-0.11518036
185	0x3e5456e0	0.20736265
186	0xbe885a42	-0.2663136
187	0xbe7f8185	-0.24951752
188	0xbe72e080	-0.23718452
189	0xbe4152b8	-0.18879211
190	0xbd2cc268	-0.042177588
191	0xbe41b485	-0.18916519
192	0xbdab2b14	-0.08357826
193	0x3e78d304	0.24299246
194	0xbdedaa2f	-0.116047256
195	0x3d9c92b6	0.076451704
196	0x3d3d0950	0.04615146
197	0x3e542b40	0.20719624
198	0xbd8227b3	-0.06355228
199	0x3dc1ce16	0.09463136
200	0x3dfdcbae	0.123923644
201	0x3e3a4de5	0.18193777
202	0xbd5c78f4	-0.053826287
203	0x3e3bf7b4	0.1835621
204	0xbc3ad666	-0.011403656
205	0xbd55bf81	-0.052184585
206	0xbe74c41d	-0.23902936
207	0xbbb8f0db	-0.0056439466
208	0xbda883c2	-0.08228256
209	0x3db20c36	0.08693735
210	0xbe5f0343	-0.21778588
211	0xbe329f61	-0.1744361
212	0x3e470591	0.19435717
213	0x3e6f0558	0.23341882
214	0xbe36f97b	-0.17868607
215	0x3d2bd8c3	0.041954767
216	0xbe37cd05	-0.17949302
217	0xbb96b98a	-0.0045997547
218	0xbe604dea	-0.21904722
219	0x3e0690f7	0.13141237
220	0xbe25881e	-0.16165206
221	0x3e04b55e	0.12959811
222	0x3d8edba6	0.06975488
223	0xbe881da5	-0.26585117
224	0x3e19c243	0.15015511
225	0xbe66eb33	-0.22550659
226	0x3e321a2e	0.173928
227	0xbdeaa0d0	-0.11456454
228	0xbe811140	-0.25208473
229	0xbd8a9c30	-0.06768072
230	0x3e7549b1	0.23953892
231	0x3e05c8a4	0.1306482
232	0xbe8b61f3	-0.27223167
233	0x3e187cd5	0.1489137
234	0x3d8d8f62	0.06912114
235	0xbe2ec6de	-0.1706805
236	0x3d4b066e	0.04956668
237	0xbe866fcd	-0.26257172
238	0x3a3b6b0e	0.0007149436
239	0x3c554d8b	0.013018976
240	0x3c699b52	0.014258223
241	0x3e520965	0.20511396
242	0xbd904cb3	-0.07045879
243	0xbe880bd3	-0.2657152
244	0x3d88bd26	0.06676702
245	0xbd10c043	-0.035339605
246	0xbe0989bf	-0.13431452
247	0xbe339710	-0.17538095
248	0xbe1d043f	-0.15333651
249	0x3df2c8df	0.11854719
250	0xbe02555b	-0.12727873
251	0xbdc0a812	-0.09407057
252	0xbe69f80a	-0.22848526
253	0x3c58c515	0.013230582
254	0x3d8d176e	0.068892345
255	0xbde06d12	-0.109583035

input_proj.bias f4 [64]
0	0xbcec9d28	-0.028883532
1	0x3cc06fe7	0.02349086
2	0x3ca55783	0.02018333
3	0xbd083fce	-0.033263974
4	0xbcd82198	-0.026383206
5	0x3d064404	0.03277971
6	0xbc824c9e	-0.015905675
7	0x3cf30379	0.029664742
8	0x3cdc297e	0.026875254
9	0xbd092b13	-0.033488344
10	0xba8db0a2	-0.0010810087
11	0xbce60223	-0.02807719
12	0x3be12eaf	0.00687202
13	0xbbc7df97	-0.006099652
14	0xbd0f5c47	-0.035000112
15	0x3c1c3527	0.009534157
16	0x3ce5cfd0	0.028053194
17	0xbc11a553	-0.008889514
18	0x3cbdd541	0.023172976
19	0x3c1e00f0	0.009643778
20	0xbcc23074	-0.023704745
21	0x3ca9e94a	0.020741124
22	0x3ccb15e8	0.02479072
23	0xbc9ea3cd	-0.019365216
24	0xbcbaf941	-0.022823932
25	0x3bf758b2	0.007548415
26	0xbcaa05bf	-0.020754693
27	0xbb4d9d45	-0.0031374258
28	0xbcef10c2	-0.029182795
29	0x3c8fe107	0.017563356
30	0xbca8c0a9	-0.02059968
31	0x3bc544e1	0.006020174
32	0x3d03cbad	0.032176662
33	0xbc89800a	-0.016784687
34	0x3cf0398d	0.029324317
35	0xbc8fb64c	-0.01754298
36	0x3c203b25	0.009779726
37	0xbc961c3b	-0.018324008
38	0xbce5ae2a	-0.02803715
39	0xbd157d57	-0.036496487
40	0x3b834ba2	0.004006819
41	0xbc4c55b7	-0.012471608
42	0x3d1d6744	0.03842856
43	0x3ab3caa2	0.0013717005
44	0x3b6d0b0e	0.003616992
45	0xbbe0e08f	-0.006862707
46	0xbc94cffc	-0.01816558
47	0x3c8356d8	0.016032621
48	0x3d02167d	0.031759728
49	0x3ce30b5c	0.027715378
50	0x3cd549d9	0.02603619
51	0x3cb288b0	0.021793693
52	0x3c77152f	0.015080734
53	0xbcf6b13a	-0.030113805
54	0xbcec954d	-0.028879786
55	0x3cd599d1	0.026074322
56	0x3ccacd77	0.024756176
57	0xbd0f865a	-0.035040237
58	0xbbff8a12	-0.0077984417
59	0xbcfd9e6e	-0.030959334
60	0x3c289c67	0.0102911955
61	0x3c8647ae	0.016391601
62	0xbbaddfa0	-0.005306199
63	0xbc972c8c	-0.018453859

input_norm.weight f4 [64]
0	0x3f7d5a64	0.9896605
1	0x3f7d60a4	0.98975587
2	0x3f80a4f4	1.005034
3	0x3f819506	1.0123603
4	0x3f81e56d	1.014814
5	0x3f80a1cd	1.0049378
6	0x3f80b8ca	1.0056393
7	0x3f7daa1a	0.9908768
8	0x3f7eb036	0.99487627
9	0x3f7d6cb8	0.98994017
10	0x3f7d1609	0.9886175
11	0x3f7acb6d	0.97966653
12	0x3f7e005f	0.99219316
13	0x3f81de43	1.0145954
14	0x3f7ca019	0.9868179
15	0x3f7bbe4f	0.9833726
16	0x3f7cd112	0.98756516
17	0x3f80eb5c	1.0071826
18	0x3f79ed13	0.9762737
19	0x3f8095b5	1.0045687
20	0x3f7f1bd4	0.9965184
21	0x3f82e995	1.0227534
22	0x3f8207b1	1.0158597
23	0x3f8002e7	1.0000886
24	0x3f7b2d37	0.9811587
25	0x3f7b3da6	0.98140943
26	0x3f8290c3	1.0200428
27	0x3f7c96ed	0.98667794
28	0x3f7fc738	0.9991336
29	0x3f7f118b	0.99636143
30	0x3f806eeb	1.003385
31	0x3f816939	1.0110236
32	0x3f83560e	1.0260637
33	0x3f812f9d	1.0092655
34	0x3f7de992	0.99184525
35	0x3f82e23b	1.022529
36	0x3f7bbd06	0.983353
37	0x3f7a4ae9	0.97770554
38	0x3f7f9e3e	0.99850833
39	0x3f81ab70	1.0130444
40	0x3f7e261d	0.99276906
41	0x3f7b6e23	0.9821493
42	0x3f7f34cf	0.99689955
43	0x3f80a5de	1.0050619
44	0x3f7e13c2	0.992489
45	0x3f7bbb78	0.9833293
46	0x3f835ef9	1.0263358
47	0x3f7ada3f	0.9798927
48	0x3f7dc1d4	0.99123883
49	0x3f802576	1.0011432
50	0x3f82de20	1.0224037
51	0x3f817484	1.0113683
52	0x3f80141c	1.0006137
53	0x3f7cc8fb	0.9874417
54	0x3f839a09	1.0281383
55	0x3f7ec4cb	0.9951903
56	0x3f80f9a3	1.0076183
57	0x3f81d513	1.014315
58	0x3f7f2ed2	0.9968082
59	0x3f7fec5a	0.9997002
60	0x3f7fb7cb	0.9988982
61	0x3f806a69	1.0032474
62	0x3f7fa5ce	0.9986237
63	0x3f7e846d	0.99420816

input_norm.bias f4 [64]
0	0xbcf2df45	-0.029647479
1	0x3ce4933e	0.027902242
2	0x3cb7b20e	0.02242377
3	0xbcff2bd5	-0.03114883
4	0xbcfda7fb	-0.030963888
5	0x3d0c21df	0.03421199
6	0xbc5723eb	-0.013131122
7	0x3d0c8e2a	0.034315266
8	0x3cea09e5	0.028569171
9	0xbd0c155e	-0.034200065
10	0x3ba6c4e6	0.00508939
11	0xbcdc8df9	-0.026923167
12	0x3c56db28	0.013113774
13	0xba756b50	-0.0009361999
14	0xbd059fc7	-0.03262308
15	0x3c4d073a	0.01251393
16	0x3cf05cb9	0.029341089
17	0xbbfb8a7c	-0.0076764207
18	0x3d0602a5	0.032717366
19	0x3c3e3330	0.011608884
20	0xbcb5600d	-0.022140527
21	0x3cc44ed8	0.023963377
22	0x3cd347f9	0.025791155
23	0xbca80fa1	-0.020515265
24	0xbcb27b6b	-0.021787366
25	0x3bd5e2a1	0.0065272604
26	0xbc958627	-0.018252445
27	0xbbb3ed59	-0.0054909405
28	0xbcda647c	-0.026659243
29	0x3cb99d85	0.022658119
30	0xbc8eb39f	-0.017419634
31	0x3bec335b	0.0072082705
32	0x3d0a9d66	0.033841513
33	0xbc81c553	-0.015841162
34	0x3cfcc6d2	0.030856524
35	0xbc847772	-0.016170237
36	0x3c38d020	0.01128009
37	0xbc8d3ddd	-0.017241413
38	0xbcd04fc0	-0.025428653
39	0xbd1be3c7	-0.038059022
40	0x3bd85799	0.0066022393
41	0xbc248e60	-0.0100437105
42	0x3d1dca4c	0.038523003
43	0x3c0eebff	0.008723258
44	0x3b33f249	0.0027457646
45	0xbc048cd3	-0.008090216
46	0xbc5505c9	-0.013001868
47	0x3c8ce1e2	0.017197553
48	0x3d014bea	0.031566538
49	0x3cecceec	0.028907262
50	0x3cd34505	0.025789747
51	0x3ccf341e	0.025293406
52	0x3cdc5b0e	0.026898887
53	0xbce1a6df	-0.02754539
54	0xbce3de44	-0.027815945
55	0x3ce0e643	0.027453547
56	0x3cc4d1dc	0.02402585
57	0xbd11ceb6	-0.035597526
58	0xbbf2653b	-0.0073973215
59	0xbce85b7c	-0.028363936
60	0x3c53ddd5	0.012931307
61	0x3cad6ba6	0.021169495
62	0xbbb3f4d3	-0.005491832
63	0xbc6aeeb1	-0.014339135

lstm.weight_ih_l0 f4 [256, 64]
0	0x3dbe20f4	0.09283629
1	0x3e25627b	0.16150849
2	0xbdd3e4a5	-0.10346345
3	0xbd1e54c8	-0.038655072
4	0x3dbedc4e	0.093193635
5	0x3e1b3d6c	0.1516015
6	0x3d38ec02	0.04514695
7	0xbd49218d	-0.049104262
8	0xbde48bb2	-0.11159457
9	0xbdeee0b9	-0.11663956
10	0xbce90980	-0.028446913
11	0xbcaea171	-0.021317216
12	0x3d699d7e	0.057034962
13	0xbd1396e1	-0.03603256
14	0xbdbfe3b2	-0.09369601
15	0xbd77ed5e	-0.060529105
16	0x3db2bdf0	0.08727634
17	0xbac3cbab	-0.0014938017
18	0xbd924e8e	-0.07143889
19	0xbdaee254	-0.085392624
20	0x3db7c3c2	0.08972885
21	0xbc511758	-0.012761913
22	0xbd8e7b89	-0.06957156
23	0xbd8c895a	-0.06862135
24	0x3dc5c9b1	0.0965761
25	0xbdf48803	-0.11940005
26	0xbd91c2bb	-0.0711722
27	0xbcbb1abb	-0.022839895
28	0xbd071747	-0.032981183
29	0x3da286d6	0.07935874
30	0x3de2d948	0.11076599
31	0xbe0cc3c4	-0.13746554
32	0xbdbe6753	-0.09297051
33	0x3dcda345	0.10040907
34	0xbd61626c	-0.055025503
35	0xbde05356	-0.10953395
36	0x3dab1095	0.08352772
37	0xbddb3a63	-0.10704496
38	0x3dc1ec55	0.09468905
39	0xbd886f56	-0.06661861
40	0x3e0eb295	0.13935311
41	0x3d81193d	0.06303642
42	0x3e0f22eb	0.13978164
43	0xbd6f1808	-0.058372527
44	0xbd4cf231	-0.05003566
45	0xbd098122	-0.033570416
46	0x3ceb2357	0.028703375
47	0x3d9037ad	0.07041869
48	0xbda43f82	-0.08019926
49	0xbc636e85	-0.01388133
50	0x3defaa24	0.117023736
51	0x3d881339	0.066442914
52	0xbbf5d544	-0.00750223
53	0xbe261b2b	-0.16221301
54	0x3cbbb73a	0.022914518
55	0x3e15f732	0.14645079
56	0xbdcca4a1	-0.09992338
57	0x3de93f01	0.1138897
58	0x3dc35410	0.09537518
59	0xbc105b12	-0.008810775
60	0xbd936840	-0.071976185
61	0xbc9283e2	-0.017885152
62	0x39aaf654	0.00032608456
63	0x3d1ed5d1	0.03877813
64	0x3d888822	0.0666659
65	0xbc9bedd0	-0.019034296
66	0x3d49d96c	0.049279615
67	0x3dbc3c9b	0.09191247
68	0x3d61c1ee	0.055116586
69	0xbdb35c4d	-0.08757839
70	0x3d1fbf09	0.039000545
71	0xbdd4eb96	-0.10396497
72	0xbbcefec0	-0.0063169897
73	0x3dbbd8e2	0.091722265
74	0x3d09592f	0.033532318
75	0x3e02ed72	0.1278589
76	0xbd4232c4	-0.047411695
77	0x3cce6f04	0.02519942
78	0x3e16b9eb	0.1471936
79	0xbdddf640	-0.10837984
80	0x3dcc9f7e	0.09991358
81	0x3dd3d4c4	0.10343316
82	0x3e10d31f	0.14143036
83	0xbe0b8230	-0.13623881
84	0x3d8b2d22	0.06795718
85	0x3db468dc	0.08809063
86	0x3d9b1c29	0.075737305
87	0xbc5fa6f1	-0.013650642
88	0xbd1a9ee4	-0.037749186
89	0xbda01658	-0.07816762
90	0x3dd0f456	0.102028534
91	0x3e04765c	0.12935776
92	0xbd207ee6	-0.03918352
93	0xbbe4909e	-0.0069752475
94	0x3bcdd13d	0.0062810467
95	0xbd29cf53	-0.041457485
96	0x3dbcb78d	0.09214697
97	0xbd6b7ab7	-0.057490077
98	0x3d86e376	0.065863535
99	0xbd2bb472	-0.041920133
100	0xbbc0588b	-0.00586993
101	0xb8cca38d	-9.757942e-05
102	0xbb99d97d	-0.004695116
103	0xbda8a7cd	-0.082351305
104	0xbd4ea8e9	-0.050454054
105	0xbde858c4	-0.11345056
106	0x3d3aae07	0.04557612
107	0x3d9c09ab	0.076190315
108	0xbde2fcbe	-0.11083363
109	0x3d915737	0.07096713
110	0xbda01d23	-0.078180574
111	0x3db37a16	0.087635204
112	0x3decb59e	0.11558078
113	0xbe0aef6d	-0.13567896
114	0x3d7a262e	0.061071567
115	0x3da029b5	0.07820455
116	0xbd041fe3	-0.032256972
117	0x3db4808e	0.08813582
118	0xbe00b9ad	-0.1257083
119	0x3d14e93c	0.036355242
120	0xbd88271c	-0.066480845
121	0xbbbba05c	-0.0057259034
122	0xbd883d71	-0.06652344
123	0xbd9fb08e	-0.07797347
124	0xbdbf9ed6	-0.093564674
125	0x3b7c8ab3	0.003853482
126	0x3c83ba53	0.016080057
127	0xbd9be010	-0.07611096
128	0x3c5da256	0.013527473
129	0xbe16b736	-0.14718327
130	0x3b8fc980	0.0043880343
131	0xbe127080	-0.14300728
132	0x3d58095c	0.0527433
133	0xbd86d0f9	-0.06582827
134	0x3cf11745	0.029430041
135	0x3dc22e63	0.09481504
136	0xbc0f4fef	-0.008747085
137	0xbdeccf07	-0.11562925
138	0x3dada78e	0.08479224
139	0xbc89adeb	-0.016806563
140	0xbda8c656	-0.082409546
141	0xbc5d048e	-0.013489855
142	0x3d6b69ca	0.057473935
143	0x3d372742	0.044715174
144	0xbd4f7be5	-0.050655264
145	0xbc133162	-0.008983942
146	0x3dd9b6ce	0.1063057
147	0x3de4c8ef	0.111711375
148	0xbcd95f92	-0.02653483
149	0x3d2fa7f0	0.042884767
150	0x3d949784	0.07255462
151	0x3d2e2c04	0.042522445
152	0xbbb69084	-0.005571427
153	0xbcc9f712	-0.024653945
154	0xbc691ac8	-0.014227577
155	0xbd05dda9	-0.032682095
156	0x3dbfd3ad	0.09366546
157	0xbd15d414	-0.036579207
158	0x3ddf8772	0.10914506
159	0x3db7791f	0.08958649
160	0xbd8fc977	-0.07020848
161	0xbe08285e	-0.13296649
162	0x3d06d943	0.03292204
163	0x3dc12c0b	0.09432229
164	0x3d24b2c0	0.04020953
165	0x3de2fe43	0.11083653
166	0x3d8cdc33	0.06877937
167	0xbdc04d04	-0.093896896
168	0x3c68231b	0.014168526
169	0x3ddcca15	0.107807316
170	0x3c615aa3	0.01375452
171	0x3cdbcb57	0.026830358
172	0x3d72308b	0.059128325
173	0xbdd267c0	-0.10273695
174	0xbd9fd350	-0.078039765
175	0xbdda939f	-0.10672688
176	0xbd8ae02e	-0.0678104
177	0xbc04387e	-0.008070109
178	0xbde8bd57	-0.11364239
179	0xbdd49fe8	-0.10382062
180	0x3dc845ac	0.09778914
181	0xbd526c42	-0.051372774
182	0x3cf40c86	0.029791128
183	0xbc96117f	-0.01831889
184	0xbd976c71	-0.073937304
185	0x3d59f933	0.05321617
186	0x3d98ee91	0.07467378
187	0xbda65b38	-0.08122867
188	0x3e0956b7	0.13411985
189	0x3dd6d77a	0.10490318
190	0xbd91d18e	-0.071200475
191	0x3dbf3d29	0.09337837
192	0xbdafffcc	-0.08593711
193	0x3e0b8998	0.13626707
194	0xbd219de4	-0.039457217
195	0xbde45a76	-0.111500666
196	0x3de1031d	0.10986922
197	0x3c97fde6	0.018553685
198	0x3e274c9a	0.16337815
199	0xbddf1556	-0.108927414
200	0xbd877206	-0.06613545
201	0x3d933df0	0.07189548
202	0xbd8579b2	-0.06517352
203	0xbe216649	-0.15761675
204	0x3e0a1a52	0.13486603
205	0xbe008e58	-0.125543
206	0xbe0b5c3c	-0.13609403
207	0xbdd33128	-0.1031211
208	0xbdf72042	-0.120666996
209	0x3c6e25d2	0.014535384
210	0xbdbc2b30	-0.09187925
211	0xbd1a7b3f	-0.037715193
212	0x3e067ad4	0.13132793
213	0xbdcfad21	-0.101404436
214	0xbddeacac	-0.10872778
215	0xbd65e7ad	-0.056129146
216	0xbc8f9ff1	-0.01753232
217	0xbd57b5dc	-0.05266367
218	0xbd909dfb	-0.070613824
219	0x3c1f98bd	0.0097410055
220	0xbd5d461b	-0.054021936
221	0xbd2b1087	-0.04176381
222	0xbd416cbf	-0.04722285
223	0x3d91ae69	0.07113344
224	0x3d7c0532	0.061528392
225	0xbc8589d2	-0.01630107
226	0x3b6e4a41	0.0036360177
227	0xbce662c1	-0.028123261
228	0x3dbfa33d	0.09357307
229	0x3cfba075	0.03071616
230	0xbd5af09e	-0.053452127
231	0x3d18efed	0.037338186
232	0x3c829495	0.01593999
233	0xbc5ae3d0	-0.013359979
234	0xbbc44f2f	-0.0059908847
235	0xbdb92d91	-0.09041894
236	0x3d4d3e13	0.050108027
237	0x3dbcf9e4	0.0922735
238	0x3e1c1f3f	0.15246294
239	0x3af1aed8	0.0018438948
240	0x3dcc33fa	0.09970851
241	0x3d787d19	0.060666177
242	0x3dc38412	0.09546675
243	0xbdadb85c	-0.084824294
244	0xbe0eea21	-0.139565
245	0xbcfeb230	-0.031090826
246	0xbe0ae123	-0.13562445
247	0xbe13be28	-0.14428008
248	0x3db2aec9	0.08724744
249	0x3dc95ce9	0.09832174
250	0xbd83bf9b	-0.0643303
251	0xbdc4e2ab	-0.09613546
252	0x3ddabca2	0.1068051
253	0x3d1c22cc	0.038119122
254	0x3c8d8b91	0.017278465
255	0x3db510b0	0.088410735

lstm.weight_hh_l0 f4 [256, 64]
0	0xbbb24d60	-0.0054413527
1	0xbcfbdfc2	-0.030746344
2	0xbdcc64f8	-0.09980196
3	0x3ce63017	0.028099103
4	0xbb5d6338	-0.0033781063
5	0x3cc598fc	0.0241208
6	0x3d2325f3	0.039831113
7	0x3dc0742b	0.09397157
8	0xbc8ecff0	-0.017433137
9	0x3ca2fa92	0.019894872
10	0xbdba2498	-0.09089011
11	0x3c05c27a	0.008164043
12	0xbd467bb1	-0.048457805
13	0x3db3bc46	0.08776145
14	0xbd5acf37	-0.05342027
15	0x3cb577f2	0.022151921
16	0x3caa6310	0.02079919
17	0x3ca0f3c2	0.019647483
18	0xbd64c55d	-0.055852283
19	0x3ccdf5e8	0.025141671
20	0xbc762fad	-0.015026015
21	0xbccf505d	-0.025306875
22	0x3c089575	0.008336415
23	0x3e060546	0.13087949
24	0xbc2c6578	-0.010522239
25	0x3dab3896	0.08360402
26	0x3ce7e25c	0.028306179
27	0x3d32f045	0.04368617
28	0xbded7a9d	-0.11595652
29	0x3dd8b993	0.105822705
30	0xbc811243	-0.015755778
31	0x3ddea60e	0.10871516
32	0x3dac56e1	0.08415008
33	0xbd88f441	-0.06687213
34	0xbca97d58	-0.020689651
35	0xbda0693d	-0.078325726
36	0xbd914eca	-0.07095106
37	0xbd50157a	-0.05080173
38	0xbdfbb57b	-0.12290474
39	0xbce4ad8e	-0.027914789
40	0xbc3bf284	-0.011471394
41	0xbc81be57	-0.015837831
42	0x3b8ee9a2	0.0043613473
43	0xbb2e939d	-0.0026638277
44	0x3cff3073	0.031151032
45	0x3d50955a	0.050923683
46	0x3dc2682b	0.09492525
47	0x3d891d88	0.06695086
48	0xbbc91a1a	-0.0061371448
49	0x3d042fd3	0.03227217
50	0x3e2f972f	0.17147516
51	0x3c8bda26	0.017071795
52	0xbd544c16	-0.051830374
53	0xbd782e89	-0.060591254
54	0x3cc555ad	0.024088705
55	0x3d2388d1	0.0399254
56	0xbc9a125f	-0.018807588
57	0x3c8c23f9	0.017106997
58	0x3b4c80c6	0.0031204685
59	0xbd9b8ff1	-0.07595814
60	0xbcf8388e	-0.030300405
61	0x3db7cb41	0.089743145
62	0xbd89a60d	-0.06721125
63	0x3dc0f056	0.094208404
64	0x3d984cb4	0.07436505
65	0xbe12bf3c	-0.14330763
66	0xbae668f9	-0.0017578892
67	0xbc901c54	-0.017591633
68	0x3d13c804	0.03607942
69	0x3d304e64	0.04304351
70	0xbca72de9	-0.020407634
71	0xbc88f7df	-0.016719757
72	0xbd6011ee	-0.0547046
73	0x3e091214	0.13385803
74	0xbc810256	-0.015748184
75	0xbd8444b7	-0.06458419
76	0xbd87e5f8	-0.0663566
77	0x3d4a79cc	0.04943256
78	0xbd8a9252	-0.0676619
79	0xbdc0c6b4	-0.094128996
80	0x3cb51b9c	0.022107892
81	0xba2e8ec4	-0.0006658847
82	0x3acc1023	0.0015568774
83	0xbdaed8f0	-0.08537471
84	0xbda78eb5	-0.08181516
85	0x3d40ab57	0.047038402
86	0x3ddafbf6	0.10692589
87	0xbe355de6	-0.177116
88	0xbd878c0d	-0.066185094
89	0xbdc07e3d	-0.09399078
90	0x3cbd8984	0.023136862
91	0x3daa16a1	0.08305097
92	0xbd39747e	-0.04527711
93	0xbda29383	-0.07938292
94	0xbba822ab	-0.005131086
95	0x3c94c0cf	0.018158345
96	0x3d2e687b	0.04258011
97	0xbcd7e3a2	-0.026353661
98	0x3d220394	0.039554194
99	0x3cd6e7e1	0.026233615
100	0x3d80e5ed	0.06293855
101	0x3d1cbe20	0.038267255
102	0x3d376cc1	0.04478145
103	0x3d829424	0.06375912
104	0xbdadf3bc	-0.08493754
105	0xbc9688d3	-0.01837579
106	0xbb37e07d	-0.002805739
107	0x3c192bd3	0.009348827
108	0x3d4aa2ed	0.049471784
109	0x3d9cd3b3	0.07657566
110	0xbc3cdf3c	-0.011527833
111	0x3d9acb79	0.075583406
112	0x3cd0b652	0.025477562
113	0xbcebc977	-0.02878259
114	0xbd8ba140	-0.06817865
115	0xbc9eaff6	-0.019371014
116	0xbcf5c4f0	-0.030001134
117	0xbdb70d1a	-0.08938046
118	0xbd8bcc23	-0.06826045
119	0xbc9f3f07	-0.019439233
120	0x3e0cdc03	0.13755803
121	0x3c9796d4	0.018504538
122	0x3cc18510	0.02362302
123	0xbd0ade04	-0.033903137
124	0x3ca6469e	0.020297345
125	0x3d172c26	0.036907338
126	0xbd1c1ae1	-0.03811157
127	0x3d90e26d	0.07074437
128	0x3d656927	0.056008484
129	0xbe0ebb15	-0.13938554
130	0xbc2efd5a	-0.010680521
131	0xbda612eb	-0.08109077
132	0xbd01805d	-0.031616557
133	0x3d506271	0.05087513
134	0x3d8d5da7	0.069026284
135	0xbd829121	-0.063753374
136	0x3c2e77af	0.010648652
137	0x3cb8bfba	0.02255236
138	0xbc6aa625	-0.0143218385
139	0xbc28c76f	-0.010301455
140	0x3c820a9a	0.015874196
141	0xbd30b8d4	-0.043145016
142	0xbdd554a6	-0.10416536
143	0x3d3dde6e	0.046354704
144	0x3ce84c5a	0.02835672
145	0x3c909ac2	0.01765192
146	0xbbea9a62	-0.007159517
147	0xbdfb72f0	-0.12277782
148	0x3ba008a0	0.0048838407
149	0xbb8b52c1	-0.0042518084
150	0x3d3bdfac	0.045867607
151	0x3d2c80ab	0.042114895
152	0xbc4e4eeb	-0.012592058
153	0x3d9a9fa7	0.075499825
154	0xbd925ab5	-0.07146207
155	0xbe15d5e7	-0.14632379
156	0xbd07b73b	-0.033133727
157	0x3caa71f6	0.020806294
158	0xbdab3b27	-0.08360892
159	0xbdc59c77	-0.09648984
160	0x3db5391f	0.088487856
161	0xbc080317	-0.008301518
162	0xbd5abe1b	-0.053403955
163	0x3d6be86f	0.057594713
164	0xbde1c048	-0.11023003
165	0x3b8e5052	0.004343071
166	0x3d538261	0.05163801
167	0xbe085f13	-0.13317518
168	0x3e008d33	0.12553863
169	0x3d44ddb3	0.04806299
170	0xbab24903	-0.0013602081
171	0xbcffbf32	-0.031219099
172	0x3abb3444	0.0014282544
173	0x3d3672a8	0.04454294
174	0x3ca745f1	0.020419093
175	0xbe0d36e3	-0.13790469
176	0xbd5cb2fa	-0.053881623
177	0xbe0e7dbc	-0.13915151
178	0xbccbbfbb	-0.024871698
179	0x3c3c6c69	0.011500456
180	0x3cb85ca9	0.022505121
181	0x3d80b387	0.06284242
182	0xbad84fc7	-0.0016503268
183	0x3d55206d	0.052032877
184	0xbdb8f03b	-0.09030195
185	0xbbd78807	-0.006577495
186	0xbc8d326a	-0.017235953
187	0xbda16dd7	-0.078822784
188	0xbd5d7eba	-0.054075934
189	0x3d4198b1	0.04726476
190	0xbd989a6a	-0.07451327
191	0x3d27ccbf	0.040966745
192	0xbd061e78	-0.0327439
193	0xbc0cb959	-0.008589112
194	0xbe00290e	-0.12515661
195	0x3cf299aa	0.029614288
196	0xbe2e4a8e	-0.17020628
197	0xbd6562a4	-0.056002274
198	0x38c501b2	9.394008e-05
199	0x3d7aa450	0.061191857
200	0x3d876fe2	0.06613137
201	0x3cc6836d	0.02423259
202	0xbc72100d	-0.014774335
203	0xbbfee315	-0.007778535
204	0xbbf0b27f	-0.007345497
205	0x3cb8aed2	0.022544298
206	0xbb1e4755	-0.0024151404
207	0xbcfcd98e	-0.030865457
208	0x3ced8bc8	0.028997317
209	0x3db75ebe	0.089536175
210	0xbd6662ca	-0.056246556
211	0xbd281c91	-0.041042868
212	0x3d38969f	0.04506552
213	0x3cee8133	0.029114341
214	0xbce14376	-0.027497988
215	0x3d594836	0.05304738
216	0x3db4f438	0.088356435
217	0x3dd639e8	0.104602635
218	0xbd014cfc	-0.03156756
219	0x3da60b27	0.08107596
220	0xbd5834a3	-0.052784573
221	0xbbd3a692	-0.0064590657
222	0x3c99aaf1	0.018758269
223	0xbde9f290	-0.11423218
224	0xbdf623c6	-0.12018542
225	0xbda18835	-0.078873076
226	0xbdc6cdc4	-0.097072154
227	0x3cf501ad	0.029908026
228	0x3cf61279	0.030038105
229	0xbd855d19	-0.065118976
230	0xbd6ef45e	-0.058338515
231	0xbdc40150	-0.09570563
232	0x3d82d3e9	0.06388075
233	0xbb7f26ea	-0.0038933107
234	0x3ab4846c	0.0013772375
235	0x3c96857c	0.018374197
236	0xbdd325c5	-0.10309938
237	0xbd615c1c	-0.055019483
238	0x3bd429f7	0.006474729
239	0xbd605fa8	-0.054778725
240	0x3c8ff15e	0.017571148
241	0x3d73ea5e	0.05954968
242	0xbcc4124d	-0.023934508
243	0x3c2810bb	0.010257895
244	0x3d29f572	0.04149384
245	0x3c63c813	0.013902682
246	0xbda784fd	-0.081796624
247	0x3d807b92	0.06273569
248	0x3c324a78	0.010882013
249	0x3c9de9f9	0.019276606
250	0x3d1121ab	0.0354325
251	0xbd9d795c	-0.07689163
252	0x3e6c4a5c	0.23075241
253	0xbc9f4eff	-0.019446848
254	0x3c1b2cac	0.0094711
255	0x3dae6f3a	0.085173085

lstm.bias_ih_l0 f4 [256]
0	0x3ba4a48c	0.0050244983
1	0xbc871d25	-0.01649339
2	0x3bdbf671	0.0067127277
3	0xbc194a94	-0.00935616
4	0xbc12366f	-0.008924111
5	0x3b3b11fa	0.002854465
6	0xba34a6f3	-0.00068913325
7	0x3b910353	0.004425445
8	0xbd056757	-0.032569256
9	0xbb02ff74	-0.0019988688
10	0x3c86239a	0.016374398
11	0xbb923da3	-0.004462914
12	0xbc7f8695	-0.015596052
13	0xbc1ed5e7	-0.009694553
14	0xbc2f5d22	-0.010703357
15	0xbbfa3f4a	-0.007636939
16	0xbca0321c	-0.019555144
17	0x3c432307	0.011910207
18	0xbaff4a8c	-0.0019477173
19	0xbc756866	-0.014978504
20	0xbc662819	-0.014047646
21	0x3b95ade6	0.0045678494
22	0x3caa1f67	0.020766927
23	0xbaec0ce1	-0.0018009209
24	0x3c01d51f	0.007924347
25	0xbc0bb721	-0.008527548
26	0x39b0b688	0.00033705332
27	0xbca95262	-0.020669166
28	0x3b0f5e4a	0.002187627
29	0x3ba9ed6a	0.0051857727
30	0xbc4f267d	-0.012643454
31	0x3bba86e2	0.005692349
32	0xbcbda0b0	-0.02314791
33	0xbc8b938d	-0.017038131
34	0x3b2d6705	0.002645911
35	0xbc990b74	-0.01868222
36	0xbbfa7363	-0.0076431497
37	0xbc30ac76	-0.010783305
38	0xb9bf518b	-0.00036491113
39	0x3be5c428	0.007011909
40	0xbcf4a090	-0.029861718
41	0xbca3787e	-0.019954916
42	0x3c657980	0.014006019
43	0xbc6538ce	-0.013990594
44	0xbcc4b0ff	-0.02401018
45	0xbba4e40f	-0.0050320695
46	0x3c0bedb0	0.008540556
47	0xbc4cff12	-0.012511985
48	0x3cf43021	0.029808106
49	0xbcfdee1f	-0.030997334
50	0x3c95d77f	0.018291233
51	0xbc42c75f	-0.011888354
52	0x3c057307	0.0081451
53	0xbc4821b7	-0.0122150695
54	0xbd0517ef	-0.032493528
55	0xbc824f16	-0.015906852
56	0x3cdb6b30	0.02678451
57	0x3c36c5b8	0.011155538
58	0xbcc41745	-0.023936877
59	0xbcabccf2	-0.020971749
60	0x3b96c0a1	0.0046006
61	0xbb833388	-0.0040039457
62	0xbc1a51e2	-0.009418936
63	0x3b34571e	0.0027517746
64	0x3f7f8423	0.99811
65	0x3f79d7a6	0.9759468
66	0x3f7d7fbf	0.9902305
67	0x3f7ef23e	0.9958838
68	0x3f80e672	1.0070326
69	0x3f8174fe	1.0113828
70	0x3f81870f	1.0119342
71	0x3f806343	1.0030292
72	0x3f801bf9	1.0008537
73	0x3f8001de	1.000057
74	0x3f81b9ee	1.0134866
75	0x3f7f11b2	0.99636376
76	0x3f7c0080	0.9843826
77	0x3f7ee563	0.99568766
78	0x3f808328	1.0040026
79	0x3f800b50	1.0003452
80	0x3f7c6ef9	0.9860683
81	0x3f810bbd	1.0081707
82	0x3f80c899	1.0061218
83	0x3f794fec	0.97387576
84	0x3f80b912	1.0056479
85	0x3f7ecf12	0.99534714
86	0x3f829daf	1.0204371
87	0x3f808a19	1.0042144
88	0x3f7ffb1a	0.99992526
89	0x3f8073ea	1.0035374
90	0x3f8035fb	1.0016474
91	0x3f818852	1.0119727
92	0x3f829688	1.0202188
93	0x3f805511	1.002596
94	0x3f7d3963	0.9891569
95	0x3f8085dc	1.0040851
96	0x3f7977dc	0.97448516
97	0x3f7c11e9	0.9846483
98	0x3f80835b	1.0040087
99	0x3f7c00cf	0.98438734
100	0x3f7c1285	0.9846576
101	0x3f7e4e29	0.9933801
102	0x3f7def1d	0.9919298
103	0x3f80718a	1.0034649
104	0x3f7e3c58	0.9931083
105	0x3f79bafd	0.97550946
106	0x3f817215	1.011294
107	0x3f7fa3e9	0.9985948
108	0x3f7bb9d9	0.98330456
109	0x3f801b18	1.0008268
110	0x3f7f0593	0.9961788
111	0x3f7dff07	0.99217266
112	0x3f83423e	1.025459
113	0x3f77bd63	0.96773356
114	0x3f81697c	1.0110316
115	0x3f7da01c	0.9907243
116	0x3f80c10c	1.0058913
117	0x3f7dba4d	0.991124
118	0x3f7ae28f	0.9800195
119	0x3f7c3162	0.9851285
120	0x3f823a7c	1.0174098
121	0x3f80a4eb	1.0050329
122	0x3f7ec1b1	0.995143
123	0x3f7a88c0	0.97864914
124	0x3f80b85c	1.0056262
125	0x3f7b8f9f	0.98266023
126	0x3f8030bf	1.0014876
127	0x3f7fdca2	0.99946034
128	0xbd0be7bf	-0.034156557
129	0xbc13e2a6	-0.009026205
130	0xbcc2f5d4	-0.02379886
131	0x3cfa3bb9	0.030546056
132	0xbca7145b	-0.020395448
133	0xbcfd2477	-0.030901177
134	0xbce36874	-0.027759768
135	0x3cddbafb	0.027066698
136	0x3ccf6051	0.025314482
137	0x3bca5558	0.0061747245
138	0xbd1fa382	-0.038974293
139	0xbc09fe81	-0.008422495
140	0xbb45b3f8	-0.0030167084
141	0xbc22127c	-0.009892102
142	0xbce33dd8	-0.02773945
143	0xbcd1d555	-0.02561442
144	0x3ccca70c	0.024981998
145	0x3cf2044e	0.029543068
146	0xbd09ed92	-0.03367383
147	0x3cd90b6d	0.026494706
148	0x3ca508e1	0.020145835
149	0x3cc59547	0.024119033
150	0xbcd74b4a	-0.026281018
151	0xbd327105	-0.043564815
152	0x3d01633b	0.031588774
153	0x3ccb50a7	0.024818731
154	0xbb4cae5a	-0.0031231851
155	0xbc292f93	-0.010326284
156	0xbcddaea7	-0.02706082
157	0x3cd02951	0.025410326
158	0x3b9d91c1	0.004808635
159	0xbc51108d	-0.012760294
160	0x3cb1eac9	0.0217184
161	0xbc8e4d27	-0.017370773
162	0xbcdd511a	-0.027016211
163	0xbc5678a6	-0.013090288
164	0xbc9ba377	-0.018998845
165	0xbcf5d28d	-0.030007625
166	0xbc9ffa20	-0.019528449
167	0xbccda272	-0.025101874
168	0x3cfd3635	0.030909637
169	0xbca1ad20	-0.019735873
170	0xbc8f1ea7	-0.01747067
171	0xbce7110e	-0.028206374
172	0x3cae61e1	0.021286907
173	0xbc684675	-0.0141769545
174	0x3be6377e	0.007025658
175	0x3c8267e8	0.015918687
176	0x3cd9fe64	0.02661056
177	0xbb0ec41f	-0.0021784378
178	0x3cc611bc	0.024178378
179	0xbc2794bd	-0.010228333
180	0xbc8d155b	-0.017222097
181	0xbcac7a0d	-0.021054292
182	0xbd0e86df	-0.03479659
183	0x3cec203e	0.028823968
184	0xbcb16de6	-0.021658849
185	0xbd37f06e	-0.044907026
186	0xbc9a1988	-0.018811002
187	0xbd039a86	-0.032129787
188	0xbc75f3e1	-0.015011759
189	0x3cd56a9f	0.026051817
190	0x3d1e455c	0.038640365
191	0x3cb5c126	0.022186827
192	0x3ccc1267	0.024911119
193	0xbc480e83	-0.012210491
194	0xba8a22bc	-0.0010538916
195	0x3cfff620	0.031245291
196	0xbca46f76	-0.02007268
197	0x3d3825f7	0.04495808
198	0x3c24bbb2	0.010054516
199	0x3cf985a1	0.030459227
200	0x3c93e263	0.018052286
201	0x3bacad8c	0.005269712
202	0x3d076298	0.03305301
203	0xbc85c1e3	-0.016327804
204	0xbc4c8494	-0.012482781
205	0xbbd0230d	-0.0063518346
206	0xb9592e3e	-0.00020711959
207	0x3ca8d084	0.02060724
208	0xbc347887	-0.011015064
209	0x3b487dc2	0.0030592536
210	0x3ca7377a	0.020412195
211	0xbca2d2ab	-0.019875845
212	0x3bb08179	0.005386528
213	0x3c12877c	0.008943435
214	0x3cb38dd0	0.021918207
215	0x3af17c07	0.0018423804
216	0x3b63fa53	0.0034786656
217	0x3c2b86dc	0.010469165
218	0xba4412b9	-0.00074795965
219	0xbcda9bd4	-0.026685633
220	0x3c350f8e	0.011051072
221	0x3c3561ec	0.01107071
222	0xbc696816	-0.014246007
223	0xbcf13ccd	-0.029447937
224	0xbc707fdf	-0.014678924
225	0xbb826bd6	-0.00398014
226	0xbc772f2e	-0.015086932
227	0xbc4eadaa	-0.012614647
228	0x39dd8e27	0.00042258317
229	0xbca0f612	-0.019648585
230	0xbc6bf6f0	-0.014402136
231	0x3bcbf9b0	0.0062248334
232	0xbbd2ef56	-0.0064372225
233	0xbcee4d56	-0.029089611
234	0x3c238571	0.009980545
235	0x3c4f372c	0.012647431
236	0x3c1bafb2	0.009502338
237	0xbcb97ca8	-0.022642449
238	0xbc40e1bc	-0.011772569
239	0xbbd44a13	-0.006478557
240	0x3d286e39	0.04112074
241	0xbd0bb863	-0.03411139
242	0x3c08af16	0.008342525
243	0xbc93741c	-0.017999701
244	0xbbe8b7c9	-0.007101987
245	0x3c8b3446	0.0169927
246	0xbcca8910	-0.02472356
247	0x3be0f417	0.0068650353
248	0x3c8b4457	0.01700036
249	0x3c35973e	0.011083422
250	0x3bd34799	0.006447744
251	0x3c63a192	0.013893502
252	0x3ae9001e	0.0017776524
253	0xbbe8753e	-0.0070940545
254	0xbc827c45	-0.015928397
255	0x39dfeeec	0.00042711885

lstm.bias_hh_l0 f4 [256]
0	0x3ba4a48c	0.0050244983
1	0xbc871d25	-0.01649339
2	0x3bdbf671	0.0067127277
3	0xbc194a94	-0.00935616
4	0xbc12366f	-0.008924111
5	0x3b3b11fa	0.002854465
6	0xba34a6f3	-0.00068913325
7	0x3b910353	0.004425445
8	0xbd056757	-0.032569256
9	0xbb02ff74	-0.0019988688
10	0x3c86239a	0.016374398
11	0xbb923da3	-0.004462914
12	0xbc7f8695	-0.015596052
13	0xbc1ed5e7	-0.009694553
14	0xbc2f5d22	-0.010703357
15	0xbbfa3f4a	-0.007636939
16	0xbca0321c	-0.019555144
17	0x3c432307	0.011910207
18	0xbaff4a8c	-0.0019477173
19	0xbc756866	-0.014978504
20	0xbc662819	-0.014047646
21	0x3b95ade6	0.0045678494
22	0x3caa1f67	0.020766927
23	0xbaec0ce1	-0.0018009209
24	0x3c01d51f	0.007924347
25	0xbc0bb721	-0.008527548
26	0x39b0b688	0.00033705332
27	0xbca95262	-0.020669166
28	0x3b0f5e4a	0.002187627
29	0x3ba9ed6a	0.0051857727
30	0xbc4f267d	-0.012643454
31	0x3bba86e2	0.005692349
32	0xbcbda0b0	-0.02314791
33	0xbc8b938d	-0.017038131
34	0x3b2d6705	0.002645911
35	0xbc990b74	-0.01868222
36	0xbbfa7363	-0.0076431497
37	0xbc30ac76	-0.010783305
38	0xb9bf518b	-0.00036491113
39	0x3be5c428	0.007011909
40	0xbcf4a090	-0.029861718
41	0xbca3787e	-0.019954916
42	0x3c657980	0.014006019
43	0xbc6538ce	-0.013990594
44	0xbcc4b0ff	-0.02401018
45	0xbba4e40f	-0.0050320695
46	0x3c0bedb0	0.008540556
47	0xbc4cff12	-0.012511985
48	0x3cf43021	0.029808106
49	0xbcfdee1f	-0.030997334
50	0x3c95d77f	0.018291233
51	0xbc42c75f	-0.011888354
52	0x3c057307	0.0081451
53	0xbc4821b7	-0.0122150695
54	0xbd0517ef	-0.032493528
55	0xbc824f16	-0.015906852
56	0x3cdb6b30	0.02678451
57	0x3c36c5b8	0.011155538
58	0xbcc41745	-0.023936877
59	0xbcabccf2	-0.020971749
60	0x3b96c0a1	0.0046006
61	0xbb833388	-0.0040039457
62	0xbc1a51e2	-0.009418936
63	0x3b34571e	0.0027517746
64	0x3f7f8423	0.99811
65	0x3f79d7a6	0.9759468
66	0x3f7d7fbf	0.9902305
67	0x3f7ef23e	0.9958838
68	0x3f80e672	1.0070326
69	0x3f8174fe	1.0113828
70	0x3f81870f	1.0119342
71	0x3f806343	1.0030292
72	0x3f801bf9	1.0008537
73	0x3f8001de	1.000057
74	0x3f81b9ee	1.0134866
75	0x3f7f11b2	0.99636376
76	0x3f7c0080	0.9843826
77	0x3f7ee563	0.99568766
78	0x3f808328	1.0040026
79	0x3f800b50	1.0003452
80	0x3f7c6ef9	0.9860683
81	0x3f810bbd	1.0081707
82	0x3f80c899	1.0061218
83	0x3f794fec	0.97387576
84	0x3f80b912	1.0056479
85	0x3f7ecf12	0.99534714
86	0x3f829daf	1.0204371
87	0x3f808a19	1.0042144
88	0x3f7ffb1a	0.99992526
89	0x3f8073ea	1.0035374
90	0x3f8035fb	1.0016474
91	0x3f818852	1.0119727
92	0x3f829688	1.0202188
93	0x3f805511	1.002596
94	0x3f7d3963	0.9891569
95	0x3f8085dc	1.0040851
96	0x3f7977dc	0.97448516
97	0x3f7c11e9	0.9846483
98	0x3f80835b	1.0040087
99	0x3f7c00cf	0.98438734
100	0x3f7c1285	0.9846576
101	0x3f7e4e29	0.9933801
102	0x3f7def1d	0.9919298
103	0x3f80718a	1.0034649
104	0x3f7e3c58	0.9931083
105	0x3f79bafd	0.97550946
106	0x3f817215	1.011294
107	0x3f7fa3e9	0.9985948
108	0x3f7bb9d9	0.98330456
109	0x3f801b18	1.0008268
110	0x3f7f0593	0.9961788
111	0x3f7dff07	0.99217266
112	0x3f83423e	1.025459
113	0x3f77bd63	0.96773356
114	0x3f81697c	1.0110316
115	0x3f7da01c	0.9907243
116	0x3f80c10c	1.0058913
117	0x3f7dba4d	0.991124
118	0x3f7ae28f	0.9800195
119	0x3f7c3162	0.9851285
120	0x3f823a7c	1.0174098
121	0x3f80a4eb	1.0050329
122	0x3f7ec1b1	0.995143
123	0x3f7a88c0	0.97864914
124	0x3f80b85c	1.0056262
125	0x3f7b8f9f	0.98266023
126	0x3f8030bf	1.0014876
127	0x3f7fdca2	0.99946034
128	0xbd0be7bf	-0.034156557
129	0xbc13e2a6	-0.009026205
130	0xbcc2f5d4	-0.02379886
131	0x3cfa3bb9	0.030546056
132	0xbca7145b	-0.020395448
133	0xbcfd2477	-0.030901177
134	0xbce36874	-0.027759768
135	0x3cddbafb	0.027066698
136	0x3ccf6051	0.025314482
137	0x3bca5558	0.0061747245
138	0xbd1fa382	-0.038974293
139	0xbc09fe81	-0.008422495
140	0xbb45b3f8	-0.0030167084
141	0xbc22127c	-0.009892102
142	0xbce33dd8	-0.02773945
143	0xbcd1d555	-0.02561442
144	0x3ccca70c	0.024981998
145	0x3cf2044e	0.029543068
146	0xbd09ed92	-0.03367383
147	0x3cd90b6d	0.026494706
148	0x3ca508e1	0.020145835
149	0x3cc59547	0.024119033
150	0xbcd74b4a	-0.026281018
151	0xbd327105	-0.043564815
152	0x3d01633b	0.031588774
153	0x3ccb50a7	0.024818731
154	0xbb4cae5a	-0.0031231851
155	0xbc292f93	-0.010326284
156	0xbcddaea7	-0.02706082
157	0x3cd02951	0.025410326
158	0x3b9d91c1	0.004808635
159	0xbc51108d	-0.012760294
160	0x3cb1eac9	0.0217184
161	0xbc8e4d27	-0.017370773
162	0xbcdd511a	-0.027016211
163	0xbc5678a6	-0.013090288
164	0xbc9ba377	-0.018998845
165	0xbcf5d28d	-0.030007625
166	0xbc9ffa20	-0.019528449
167	0xbccda272	-0.025101874
168	0x3cfd3635	0.030909637
169	0xbca1ad20	-0.019735873
170	0xbc8f1ea7	-0.01747067
171	0xbce7110e	-0.028206374
172	0x3cae61e1	0.021286907
173	0xbc684675	-0.0141769545
174	0x3be6377e	0.007025658
175	0x3c8267e8	0.015918687
176	0x3cd9fe64	0.02661056
177	0xbb0ec41f	-0.0021784378
178	0x3cc611bc	0.024178378
179	0xbc2794bd	-0.010228333
180	0xbc8d155b	-0.017222097
181	0xbcac7a0d	-0.021054292
182	0xbd0e86df	-0.03479659
183	0x3cec203e	0.028823968
184	0xbcb16de6	-0.021658849
185	0xbd37f06e	-0.044907026
186	0xbc9a1988	-0.018811002
187	0xbd039a86	-0.032129787
188	0xbc75f3e1	-0.015011759
189	0x3cd56a9f	0.026051817
190	0x3d1e455c	0.038640365
191	0x3cb5c126	0.022186827
192	0x3ccc1267	0.024911119
193	0xbc480e83	-0.012210491
194	0xba8a22bc	-0.0010538916
195	0x3cfff620	0.031245291
196	0xbca46f76	-0.02007268
197	0x3d3825f7	0.04495808
198	0x3c24bbb2	0.010054516
199	0x3cf985a1	0.030459227
200	0x3c93e263	0.018052286
201	0x3bacad8c	0.005269712
202	0x3d076298	0.03305301
203	0xbc85c1e3	-0.016327804
204	0xbc4c8494	-0.012482781
205	0xbbd0230d	-0.0063518346
206	0xb9592e3e	-0.00020711959
207	0x3ca8d084	0.02060724
208	0xbc347887	-0.011015064
209	0x3b487dc2	0.0030592536
210	0x3ca7377a	0.020412195
211	0xbca2d2ab	-0.019875845
212	0x3bb08179	0.005386528
213	0x3c12877c	0.008943435
214	0x3cb38dd0	0.021918207
215	0x3af17c07	0.0018423804
216	0x3b63fa53	0.0034786656
217	0x3c2b86dc	0.010469165
218	0xba4412b9	-0.00074795965
219	0xbcda9bd4	-0.026685633
220	0x3c350f8e	0.011051072
221	0x3c3561ec	0.01107071
222	0xbc696816	-0.014246007
223	0xbcf13ccd	-0.029447937
224	0xbc707fdf	-0.014678924
225	0xbb826bd6	-0.00398014
226	0xbc772f2e	-0.015086932
227	0xbc4eadaa	-0.012614647
228	0x39dd8e27	0.00042258317
229	0xbca0f612	-0.019648585
230	0xbc6bf6f0	-0.014402136
231	0x3bcbf9b0	0.0062248334
232	0xbbd2ef56	-0.0064372225
233	0xbcee4d56	-0.029089611
234	0x3c238571	0.009980545
235	0x3c4f372c	0.012647431
236	0x3c1bafb2	0.009502338
237	0xbcb97ca8	-0.022642449
238	0xbc40e1bc	-0.011772569
239	0xbbd44a13	-0.006478557
240	0x3d286e39	0.04112074
241	0xbd0bb863	-0.03411139
242	0x3c08af16	0.008342525
243	0xbc93741c	-0.017999701
244	0xbbe8b7c9	-0.007101987
245	0x3c8b3446	0.0169927
246	0xbcca8910	-0.02472356
247	0x3be0f417	0.0068650353
248	0x3c8b4457	0.01700036
249	0x3c35973e	0.011083422
250	0x3bd34799	0.006447744
251	0x3c63a192	0.013893502
252	0x3ae9001e	0.0017776524
253	0xbbe8753e	-0.0070940545
254	0xbc827c45	-0.015928397
255	0x39dfeeec	0.00042711885

lstm.weight_ih_l0_reverse f4 [256, 64]
0	0x3d0aaf01	0.033858303
1	0x3da15b58	0.078787506
2	0xbda4dfcb	-0.080504976
3	0xbda7e891	-0.081986554
4	0x3c1d7352	0.009610014
5	0xbd9ed033	-0.077545546
6	0x3d927dc8	0.07152897
7	0x3c4f3cdb	0.012648786
8	0xbd09dc80	-0.03365755
9	0xbd4d1056	-0.050064407
10	0xbd447bcd	-0.047969628
11	0xbb93443a	-0.004494217
12	0xbdfd5e22	-0.1237147
13	0x3bdbc671	0.0067070057
14	0xbdc06c7b	-0.09395691
15	0xbdcda8ad	-0.10041938
16	0xbd1132d6	-0.03544887
17	0x3d0366b2	0.03208036
18	0x3dde9114	0.10867515
19	0x3d40bee7	0.04705706
20	0x3da13f33	0.078733824
21	0xbc588165	-0.013214444
22	0x3d81466f	0.06312262
23	0x3e170540	0.14748096
24	0xbcd6e3f5	-0.026231745
25	0xbdc132e5	-0.094335355
26	0x3d2c62b7	0.04208633
27	0xbd8c8aa7	-0.06862383
28	0xbcb977e4	-0.022640176
29	0x3de5a4a1	0.11213041
30	0xbdcba074	-0.099427134
31	0x3cd88a29	0.026433067
32	0x3d3f8b39	0.046763632
33	0xbc814897	-0.015781684
34	0x3c0e0b41	0.008669675
35	0xbd1f5945	-0.038903493
36	0x3dafc09e	0.08581661
37	0x3cf72d9d	0.030173117
38	0xbceeb54a	-0.02913918
39	0x3cab10d0	0.02088204
40	0x3b97349b	0.0046144254
41	0xbcb6ae19	-0.022299813
42	0xbdd618ac	-0.104539245
43	0xbe01d318	-0.12678182
44	0xbd6779e9	-0.056512747
45	0x3db7ccc9	0.089746065
46	0xbd6c69c8	-0.05771807
47	0x3d7c68a1	0.06162322
48	0x3c5f5858	0.013631903
49	0x3dcf9d2c	0.101374
50	0x3c1427d3	0.009042698
51	0x3d4afa68	0.049555212
52	0xbddb3a76	-0.1070451
53	0xbd59bcb7	-0.053158488
54	0xbde87732	-0.1135086
55	0x3d4dda82	0.050257213
56	0xbd88e858	-0.06684941
57	0x3dc0d77d	0.09416101
58	0xbdb7ba83	-0.08971121
59	0x3b3c6992	0.0028749448
60	0x3d9ac8b0	0.07557809
61	0x3bd1f9db	0.006407959
62	0x3e01ad10	0.12663674
63	0xbdb5cad1	-0.08876575
64	0x3d8a4608	0.06751639
65	0xbc36aab1	-0.011149094
66	0xbd07ed88	-0.03318551
67	0x3ca0ac0e	0.019613292
68	0xbd9a7a63	-0.07542875
69	0x3df32425	0.118721284
70	0x3dbddba3	0.09270408
71	0xbd221c5a	-0.03957782
72	0x3c8870a6	0.016655277
73	0x3e17ae0c	0.14812487
74	0x3d17522e	0.036943607
75	0x3dc7cb08	0.09755522
76	0x3dd234eb	0.102639996
77	0xbdf1a18c	-0.11798391
78	0xbd0a9aec	-0.03383915
79	0xbcc6c557	-0.02426402
80	0xbad24ef0	-0.0016045254
81	0xbd47f309	-0.04881576
82	0x3cfe502c	0.031044088
83	0x3b6ce822	0.0036149104
84	0xbb214100	-0.0024605393
85	0xbe115a77	-0.14194666
86	0xbd4bcb8a	-0.049754657
87	0xbe0a9d7e	-0.13536641
88	0xbcb8fa61	-0.022580327
89	0xbd97d195	-0.074130215
90	0xbd9ad9f4	-0.075611025
91	0xbe216a97	-0.15763317
92	0x3d9db52d	0.07700572
93	0x3dd12ea0	0.10213971
94	0xbdb662ee	-0.08905588
95	0x3dc1ffa4	0.09472588
96	0x3c8ab253	0.016930735
97	0xbd7ef09f	-0.062241193
98	0xbc3fb9a8	-0.011701979
99	0xbdac0a34	-0.084003836
100	0xbd9e818e	-0.07739554
101	0xbce4572a	-0.027873594
102	0x3daeaa5d	0.08528588
103	0x3d8c647f	0.068551056
104	0x3dd67766	0.10471992
105	0xbcbcbcb3	-0.023039198
106	0xbe1a3fa4	-0.1506334
107	0xbe007455	-0.12544377
108	0x3ccca289	0.024979847
109	0x3d851e63	0.064999364
110	0x3e00caae	0.12577316
111	0xbd882ac0	-0.06648779
112	0x3df8486e	0.1212319
113	0xbd109213	-0.035295557
114	0x3bf4c7b9	0.007470098
115	0xbdeff81e	-0.117172465
116	0xbd92cfcc	-0.0716854
117	0x3d7e2943	0.06205107
118	0x3e01d356	0.12678275
119	0xbdf2d862	-0.11857678
120	0x3dfcc15d	0.123415686
121	0xbd5aa2bb	-0.053377848
122	0xbdfae046	-0.12249808
123	0x3e01a180	0.12659264
124	0x3dc807ef	0.09767138
125	0x3d4d5e52	0.05013878
126	0x3e021103	0.12701802
127	0x3dc9516c	0.09829983
128	0x3e09e806	0.13467416
129	0xbd928314	-0.071539074
130	0xbdbeb9b5	-0.093127646
131	0xbd44e469	-0.04806939
132	0x3db15626	0.0865901
133	0x3dc2e936	0.09517138
134	0x3d43b50f	0.047780093
135	0xbc236dd5	-0.009974916
136	0x3de89cd1	0.11358035
137	0xbbee7f06	-0.007278326
138	0x3e0a0500	0.1347847
139	0xbc9614be	-0.018320438
140	0x3d8d18f4	0.06889525
141	0x3c1da23b	0.009621198
142	0x3c5696ce	0.013097478
143	0x3c2bea78	0.010492913
144	0xbcf396c1	-0.029734971
145	0x3e00fc8a	0.12596336
146	0x39a348d9	0.00031144058
147	0xbdf2e189	-0.11859424
148	0xbd9e01d9	-0.07715196
149	0xbc71b5fa	-0.014752859
150	0x3d250f8d	0.040298034
151	0x3dbe61c8	0.09295994
152	0x3dfd2e20	0.12362313
153	0xbc2b6b11	-0.010462538
154	0xbd76ef81	-0.060287002
155	0x3e049a82	0.12949565
156	0xbd2f8f65	-0.04286136
157	0xbde132b9	-0.10996003
158	0x3c087f8c	0.008331191
159	0xbd489978	-0.048974484
160	0x3d787478	0.06065795
161	0x3df1f02e	0.11813389
162	0xbd2e92be	-0.042620413
163	0x3e18ef78	0.149351
164	0x3d8a3d35	0.067499556
165	0x3c2dd2da	0.010609353
166	0xbdf24cf8	-0.11831087
167	0x3d2b803b	0.041870337
168	0x3cef3e9b	0.029204657
169	0xbdb53709	-0.08848388
170	0x3d967e29	0.07348282
171	0x3d124568	0.035710722
172	0x3daefc7a	0.0854425
173	0xbe0112ca	-0.12604824
174	0x3d863cfa	0.06554599
175	0x3cb5b866	0.022182655
176	0xbdb96e0e	-0.090541944
177	0x3ded059d	0.11573336
178	0x3bd09a06	0.0063660173
179	0xbd7eb4cd	-0.062184144
180	0xbdba0867	-0.09083634
181	0x3d1fbe50	0.038999856
182	0xbc6aeb70	-0.014338359
183	0xbddbd692	-0.107342854
184	0xbd109bc6	-0.035304807
185	0xbc9a1e6e	-0.018813338
186	0x3d66bf9a	0.05633507
187	0xbd34b120	-0.044114232
188	0xbd1008f6	-0.035164796
189	0xbd8d5bdf	-0.06902289
190	0xbe003765	-0.12521131
191	0xbce3e58b	-0.027819416
192	0xbc0630cb	-0.008190344
193	0xbd637624	-0.05553259
194	0xbb29d50b	-0.0025914337
195	0xbdde7a37	-0.108631544
196	0x3d99952d	0.07499156
197	0xbe117756	-0.1420568
198	0x3dee20c1	0.11627341
199	0x3e1bec83	0.15226941
200	0xbd251539	-0.040303443
201	0x3d102a0a	0.03519634
202	0xbda664de	-0.08124708
203	0x3de654fb	0.112466775
204	0xbe31b39b	-0.1735367
205	0xbd8e1251	-0.06937087
206	0xbdcbfc2a	-0.09960206
207	0x3e0b72ef	0.13618062
208	0xbdb43d59	-0.08800764
209	0xbc88e6b5	-0.016711572
210	0x3d00519a	0.03132782
211	0xbdf1c041	-0.11804248
212	0xbd87dd51	-0.0663401
213	0x3da95cb0	0.08269632
214	0x3dbf9a7f	0.0935564
215	0x3d1f638e	0.038913302
216	0xbd1f6bf9	-0.03892133
217	0x3be7e51b	0.007076872
218	0xbe26575b	-0.16244261
219	0x3d80f07e	0.0629587
220	0xbcbb422e	-0.022858705
221	0x3da5e277	0.08099835
222	0x3d97cc82	0.07412054
223	0x3cbf61fb	0.02336215
224	0x3dfb04aa	0.12256749
225	0xbdfbdcc5	-0.12297968
226	0xbd726547	-0.059178617
227	0x3d89b963	0.06724813
228	0xbc8fbc45	-0.017545829
229	0x3c4a0020	0.012329131
230	0xbc61e35a	-0.013787115
231	0xbcd2c42f	-0.025728313
232	0x3c81e4a2	0.015856091
233	0xbdcfeb1f	-0.10152268
234	0x3e19ab57	0.15006767
235	0xbda1a2c6	-0.07892375
236	0xbdc4348d	-0.09580336
237	0x3dd77374	0.10520068
238	0xbdc35538	-0.095377386
239	0x3c97a1c1	0.018509747
240	0x3d528497	0.05139598
241	0x3da010ed	0.07815728
242	0x3a8b923d	0.0010648441
243	0x3dc01fb5	0.09381048
244	0xbd14ee66	-0.036360167
245	0x3de8606e	0.113465175
246	0x3d545b10	0.051844656
247	0xbd12b1ac	-0.035813972
248	0xbdc900d1	-0.09814609
249	0x3ccc6b66	0.024953555
250	0xbdb623af	-0.08893525
251	0xbe2b44dc	-0.16725487
252	0xbdff41b8	-0.12463707
253	0x3d9aad18	0.07552546
254	0x3dfda800	0.12385559
255	0xbd1ea6e2	-0.03873337
