outputs/lstm_FD001_20251204_080303/lstm_final.pt (torch, 751778 bytes, 30 tensors)

input_proj.weight f4 [64, 14]
00000000: 22dc a1bd 2abf 4e3e 5680 4a3e 3160 663e
00000010: 68c2 aa3d ccc1 1ebe 558e 773e e132 c5bd
00000020: a901 c03d 9d96 bcbb 8b59 463d a975 173e
00000030: 3747 903e 2bf1 dcbd df2d 4fbe 2e53 fabd
00000040: ec34 ff3d 74a9 9dba aed7 163e a81f c43d
00000050: 0534 a23c b624 4c3e beee 963b 5eed 12be
00000060: ce7a 863e e2d3 ccbd 441c 343e 3949 22bc
00000070: 1236 3f3e 7c82 d0bc b35f 9dbd dd09 15bd
00000080: 5a4b 7b3e ed96 55bd b55d 4f3e 79fb 693e
00000090: 6e0e 8abc 9544 f33d d0ff 793e 7d5a cbbd
000000a0: ad1b 90bd 4f98 703e ae3b 863e 8198 bfbd
000000b0: 1987 e2bd 81f7 643e 0beb 3a3d b716 863e
000000c0: 5e4b 873e 710d 54be b5e0 2d3d 4185 e13c
000000d0: b3fb 113e 6f35 283e 0c9a 0d3e b59b 5cbd
000000e0: 75e2 27be 8a4f 473e 7b50 03be 3711 273d
000000f0: 9adb 363e d64b 123e 4a3b b63b 6431 e63d
00000100: eef7 5abe 89f2 7dbe ddc3 36be 50be 513e
00000110: ff13 efbd 63a8 943d e5b1 69be fdaa 8cbc
00000120: 1ecd 8f3d b315 ad3d 9747 5c3e dc03 33bd
00000130: 5754 9d3c f66e 36be 81d8 8ebd 686b 31be
00000140: f2fd 74be 371d 453e 5b1f 39be e653 dc3d
00000150: 0304 04be 9b64 863e 9d0e eebd 93d1 3bbe
00000160: 38aa 883e 0f49 3abe 8ae1 243d 3271 5fbd
00000170: 391e 133e 22aa 1cbe 3c1f 7d3e ffe4 3d3e
00000180: 36f4 603e 9e9b e93d 2afc 69bd 53c1 0abe
00000190: caa2 36be bd7d 72be 52dc 4ebe b398 733e
000001a0: 6bf1 c9bd 21d7 e0bd 67a1 413e c587 70be
000001b0: 3084 073e 7424 0a3c f79f 3cbe 2cac b23d
000001c0: 2d87 21bd e981 33be 486d b8bd 7feb 29be
000001d0: 7010 3cbe 2487 5a3d 8929 943e 0a5c c33c
000001e0: 29d4 043e d1ef 1e3e 99be 80be d65f 9e3d
000001f0: e1e1 1e3e a89d 813d b87a 17be cd0a 6e3e
00000200: bb82 8bbd eacd 373e 9498 3dbe fc13 873e
00000210: 1ea2 213e cdac 09be 3b8f 76be a1cd 52bc
00000220: 3f6e 4e3e 75b9 153e 3448 593e d337 a83d
00000230: a31f 123e d04f 0ebd 4acf c83d 2097 93be
00000240: 5f5e 333c 0019 3f3e 6945 8f3e 5a15 7e3e
00000250: 0188 d5bd 6a01 ca3d 95b3 ca3d 81bc 693d
00000260: 1025 0fbe 3d04 273e 6089 433e b2cd 16be
00000270: 8517 5f3e 4bae 94bd 73a5 ad3d 0116 04be
00000280: bb15 71be 7d8b 2d3c 5f02 5a3e c448 2d3e
00000290: 097e d6bd 1204 da3d 9d51 8bbd b21f 83be
000002a0: c577 95bd 06aa 85bc e63b 683e b1c8 773e
000002b0: 339c 7ebe 5bd0 673e 9030 10be 72ec 0dbe
000002c0: cdb2 55be efe5 633e a4bc 66be 2c71 603e
000002d0: 3f02 0ebe b37d 3cbe 8708 1abd b514 74bc
000002e0: 239e a2bd 37bf 4bbe 13be fcbc 9342 ce3d
000002f0: fc55 a7bd 4b27 b5bc ed70 073c 3597 393e
00000300: 5516 0bbe db1c 953c 05b9 843e 4567 763e
00000310: 9886 493e 11f1 1d3d 15b9 8c3d d366 81be
00000320: da36 2a3e c5b8 76be 6253 4d3e 1549 663e
00000330: 8e03 f93d e17b ac3d 9dd7 3b3e 6593 fbbb
00000340: 0a4c f9bc 707f 9d3d f814 15be 56dd 693d
00000350: 8da1 30be a566 df3d 5a1b 5d3e 7bb1 083c
00000360: 23f1 8abe 5cb7 463e bf1c f4bd 7979 c2bd
00000370: c338 9cbb fd90 52be 47d4 76bd 9fb6 7f3e
00000380: c33f 8f3e d960 1dbd 5b7a 5a3d 63d8 8bbd
00000390: 4a3f a0bd b482 62be 9979 8b3d 74dc 18be
000003a0: 463a 183e 59d2 3fbe b47f 4bbe 335f d6bd
000003b0: d024 383e c758 d13d bb4d bd3b 874d 5cbe
000003c0: a657 2b3e 9fc2 003c abc6 7b3e 992e 34be
000003d0: 20a0 55be 5550 33be 9339 1c3e 5bea 893e
000003e0: 2b27 2c3e 5df5 f3bc 7af8 8abe da99 523e
000003f0: 51e6 b73d 4129 473e 21e3 1abd fe49 80be
-0.07903315 0.20190111 0.19775519 0.22497632 0.08337861 -0.15503615 0.24175389 -0.09628845
0.09375317 -0.005755259 0.04842524 0.14790978 0.28179333 -0.10788187 -0.20232342 -0.122228965
0.12461266 -0.001202865 0.14730713 0.095763505 0.019800195 0.19935879 0.004606097 -0.14348361
0.26265568 -0.10001351 0.17588907 -0.009905153 0.1867297 -0.025452845 -0.07684269 -0.03638636
0.24540463 -0.052145887 0.2025059 0.22849835 -0.016852584 0.11878315 0.24413991 -0.09929369
-0.07036529 0.23495601 0.26217407 -0.0935526 -0.11060924 0.2236004 0.04563431 0.26189205
0.26424688 -0.20708252 0.042450625 0.02752936 0.14256172 0.16426633 0.13828295 -0.05385943
-0.1639498 0.19463935 -0.1282367 0.0407879 0.17857209 0.14286742 0.005561267 0.11239889
-0.2138364 -0.24799551 -0.17848153 0.20482755 -0.11673736 0.0725868 -0.22821768 -0.017171377
0.07021545 0.084514044 0.21511684 -0.043704852 0.019205255 -0.17815766 -0.069748886 -0.17326128
-0.23924997 0.19249426 -0.18078367 0.1075819 -0.12892155 0.2624863 -0.11623881 -0.18341665
0.26692367 -0.18191932 0.040254153 -0.05455131 0.14366998 -0.15299276 0.24718946 0.18544386
0.21968159 0.11406635 -0.057125248 -0.1355031 -0.17835537 -0.23680778 -0.20201233 0.23788719
-0.098605 -0.109785326 0.18909226 -0.23489292 0.1323402 0.008431543 -0.18420397 0.087242454
-0.039435554 -0.17530026 -0.09005219 -0.16593741 -0.18365645 0.053351536 0.2893794 0.023847599
0.12971558 0.1552117 -0.25145414 0.07733123 0.15515853 0.06328899 -0.14792907 0.23246308
-0.06812044 0.17949644 -0.18515235 0.26382434 0.15784499 -0.13444825 -0.24078076 -0.012866409
0.20159243 0.14621527 0.2121895 0.082137726 0.14269881 -0.034744084 0.09805162 -0.28826237
0.010947793 0.1866188 0.27982643 0.24812832 -0.10426331 0.09863551 0.09897534 0.057064537
-0.13978982 0.1631021 0.19095373 -0.14726904 0.21786316 -0.07259806 0.084788226 -0.12899019
-0.23543446 0.010592339 0.21289967 0.16922289 -0.10473258 0.106453076 -0.06802676 -0.2561012
-0.07298235 -0.016316425 0.226791 0.24197651 -0.24864273 0.22638075 -0.14081025 -0.13859728
-0.20868988 0.22255681 -0.22532898 0.21918172 -0.13868044 -0.18407325 -0.03760579 -0.014897515
-0.079403184 -0.19897161 -0.030852353 0.10071292 -0.08170697 -0.022113463 0.00826667 0.18124087
-0.13582738 0.018202236 0.2592241 0.24062832 0.1968025 0.038559977 0.06871239 -0.2527376
0.16622487 -0.24093921 0.2005134 0.22488816 0.12158881 0.084220655 0.18343969 -0.007677483
-0.030431766 0.076903224 -0.1455878 0.057095848 -0.17249127 0.1090825 0.21592465 0.008343096
-0.27137098 0.19405884 -0.119195454 -0.09495825 -0.0047675087 -0.20563121 -0.060261037 0.24972008
0.27978334 -0.03842244 0.053339344 -0.06828382 -0.078245714 -0.22120172 0.06810302 -0.14927846
0.1486598 -0.18732585 -0.19872934 -0.104673766 0.17982793 0.10222011 0.0057770885 -0.2151395
0.16732654 0.007858901 0.24587505 -0.175959 -0.20861864 -0.17511113 0.15256338 0.26936612
0.16811816 -0.029780084 -0.27142698 0.20566502 0.08979476 0.19449331 -0.037814263 -0.25056452

input_proj.bias f4 [64]
00000000: 141e f9bc 5531 6e3c 2c33 683b 45f8 98bc
00000010: d947 25bd 1ba8 893c 1cfc 273d ac63 30bd
00000020: 3616 7d3c 1e49 10bd 29a1 e63c 514a 1c3d
00000030: b3e7 41bc 91ef f63b 8319 f7bc cfd4 f53b
00000040: 68c1 463d c83d ab3c de83 ee3c acdd 763c
00000050: 32f5 103d 32ca 5bbc 90b6 a2bc 0145 73bc
00000060: 213f 30bc 1448 8d3c ba78 b2bc 3fcd ba3c
00000070: 5ae6 033d 3ace ce3c 0e26 b1bc ecbe 29bd
00000080: 6587 4b3b f12f e9bc 5d06 f23c 8e7c 84bc
00000090: 8b06 afbc b0f7 3bbd 10dd debc 6bcf d4bc
000000a0: b086 be3c 5703 043b c403 d2bb f31f 733c
000000b0: c271 283c cf18 0d3b 8818 32bc c9f1 cc3c
000000c0: fe67 fcbc 9fe1 1a3d dde8 cb3c d2b2 2a3d
000000d0: eeed d5bc 814a fabc 9989 473c e388 edbc
000000e0: d8a4 1cbc f41c 4cbc 9c5d c43c 8466 e3bc
000000f0: e16e b33c 2b49 ccbc e332 683b 2971 3d3d
-0.03040985 0.014538129 0.0035430891 -0.018673072 -0.040351722 0.016803792 0.041011915 -0.043063805
0.01544719 -0.03522598 0.028153019 0.03815681 -0.011835027 0.0075358828 -0.030163532 0.0075021754
0.04852429 0.020903483 0.029115614 0.015067499 0.035390086 -0.013414906 -0.019862443 -0.014847995
-0.010757239 0.017246284 -0.021786083 0.022802947 0.032202102 0.02524482 -0.021624591 -0.041441843
0.0031056043 -0.028465243 0.02954405 -0.016172674 -0.021365425 -0.04589051 -0.02720502 -0.02597781
0.023257583 0.0020143592 -0.0064091403 0.01483916 0.010281028 0.002152968 -0.0108701065 0.025017636
-0.030811306 0.037812825 0.024891311 0.041674443 -0.02611443 -0.030553104 0.012178802 -0.028995937
-0.009560786 -0.012458075 0.023970418 -0.027758844 0.021903457 -0.024937233 0.0035430721 0.046250496

input_norm.weight f4 [64]
00000000: 372e 7d3f ab26 803f af0f 823f d98d 7d3f
00000010: da13 813f 40c2 7a3f 76cf 7d3f ebf6 803f
00000020: e43b 7d3f 3745 813f 5dc6 823f c2d0 833f
00000030: cfa7 7a3f cce6 7b3f 5fb6 7e3f 6309 803f
00000040: fcd5 813f e732 7f3f da8a 7b3f 810b 813f
00000050: cb93 813f 5fd6 7e3f 6315 7c3f a51b 813f
00000060: 8cba 7c3f 50f5 7e3f 3872 7c3f c08d 7d3f
00000070: e518 813f 8c17 7f3f c712 823f f76b 803f
00000080: e8d9 803f 33b0 813f d545 7e3f 0ccf 7e3f
00000090: 5866 7d3f 0b1a 7f3f 26cc 7f3f 6f82 813f
000000a0: 004a 813f b922 803f 6e55 7a3f 67ac 7f3f
000000b0: 32c3 813f da7b 7a3f 7cfe 7e3f 3a2b 803f
000000c0: 2bbb 803f 42c7 813f d757 823f a3f0 7c3f
000000d0: c9a9 7e3f 8e9d 803f ab34 803f fd2e 813f
000000e0: 819b 7b3f e875 7b3f 0c92 803f 8b35 813f
000000f0: 8c58 823f c6d3 803f be69 823f 7fc0 823f
0.98898643 1.00118 1.0161036 0.9904457 1.0084183 0.9795265 0.99144685 1.0075353
0.9891951 1.0099248 1.0216786 1.0298083 0.97912306 0.98399043 0.99497026 1.0002865
1.0143428 0.99687046 0.98258746 1.0081636 1.0123228 0.99545854 0.98470134 1.0086561
0.9872215 0.9959307 0.98611784 0.9904442 1.0085722 0.99645305 1.016198 1.0032948
1.00665 1.0131897 0.99325305 0.9953468 0.9898429 0.99649113 0.9992088 1.011793
1.0100708 1.0010597 0.97786605 0.9987244 1.0137694 0.9784523 0.9960706 1.0013192
1.0057119 1.0138934 1.0183057 0.9880468 0.9947782 1.0048082 1.0016073 1.0092465
0.98284155 0.98226786 1.004457 1.0094465 1.0183272 1.0064628 1.018852 1.0214995

input_norm.bias f4 [64]
00000000: cf6b ffbc 4628 913c 7ae0 883c 465d 63bc
00000010: c1f4 1bbd 2d67 b13c 06f7 193d 2642 32bd
00000020: d0f4 ab3c d653 09bd 28cb d23c cb57 143d
00000030: 8a4c d2bb 7b4a 943c 8956 e2bc 5e80 6f3c
00000040: f937 403d 7985 ba3c 044a 153d 6f72 9e3c
00000050: 751f 133d f862 4bbc a874 8fbc b015 d5ba
00000060: 204b 3bbb 6708 bd3c 48d7 8fbc f373 cc3c
00000070: 2f2f 033d 6603 ea3c cf5c adbc 18e4 28bd
00000080: fcb8 153c 4db6 e2bc 93d3 0b3d cf29 69bc
00000090: bb61 9fbc 6b44 1fbd a0cc dfbc b696 a0bc
000000a0: f8c0 c63c 274f a23b 1f66 5c3b d251 ca3c
000000b0: 9110 8d3c 0c86 9a3b 5fc6 acbb 701d d43c
000000c0: de0f 03bd 01c6 143d cec4 e83c 3d94 273d
000000d0: 2f4b ccbc e308 ddbc 14fe 243d 69e3 e8bc
000000e0: a497 29bb 05b4 e9bb e068 e83c ac89 d5bc
000000f0: 7958 c73c aa27 8bbc a43f 9c3c b1d2 403d
-0.031179337 0.0177194 0.016708601 -0.013877219 -0.038075212 0.021655643 0.037589096 -0.043520115
0.02099076 -0.033527218 0.025731638 0.03621654 -0.0064178156 0.018101921 -0.027629154 0.0146180075
0.04692838 0.022768723 0.03644754 0.019341676 0.03591867 -0.012413733 -0.01751168 -0.0016257074
-0.0028578714 0.023075296 -0.017558709 0.024957633 0.03202742 0.028566074 -0.021162419 -0.041233152
0.009138342 -0.027674818 0.03413732 -0.014231159 -0.019455781 -0.038883608 -0.027319252 -0.019603115
0.024261937 0.0049532834 0.0033630205 0.024697218 0.017219814 0.0047156867 -0.005272671 0.025892943
-0.031997554 0.036321644 0.028414156 0.040912855 -0.024938194 -0.026981777 0.04028137 -0.02842875
-0.0025877738 -0.0071320557 0.02837032 -0.026066624 0.02433418 -0.016986687 0.019073315 0.04707593

lstm.weight_ih_l0 f4 [256, 64]
00000000: fcaa 113d c75c 45bd 7e84 043d 4e63 af39
00000010: 8fe3 cebd b052 103e ea13 8c3d 8822 d13d
00000020: 1541 9f3d a371 48bd 81a9 c83d 00f1 cebd
00000030: 6241 10be 456c aa3d fabd fe3d f04c 85bd
00000040: 9712 eb3d 8a9c 8fbd a9e7 d63d 7ecb 053d
00000050: 1e0c 0a3c 465a 983c 15b4 9e3c 364d 74bb
00000060: cd31 263d 2771 8b3c eddd cb3c ba79 d2bd
00000070: 73a3 ad3d 9b95 0c3c 32e9 efbd b758 04be
00000080: 993b ce3d 2641 46bc 70b3 07bd dbd4 0f3e
00000090: e018 c73d 22a0 bebc 09c8 0b3b 24a0 d5bd
000000a0: c088 bdbd a9f9 983c dc45 ffbd 84e9 3ebd
000000b0: 7dc3 dcbd d9c0 163c b68c e4bd 3569 09be
000000c0: 1727 4db8 ae94 2bbc a35b c0bc 6893 dfbd
000000d0: 3f03 df3d 6169 043e 134f 103b 650d df3d
000000e0: 2d4c 253d 54b1 0fbd ea4a ca3d 4b02 d7bd
000000f0: 0bf1 0a3c 91f8 9abb ae7e 8fbc 7e9d a1bd
00000100: 77cc 833d 1eca a23d d811 b1bb c16c d83d
00000110: 79c0 08bd d747 123d 16e7 f33d a69f 1c3d
00000120: e814 373d de20 82bd 942e 6c3d 9c5e 3f3d
00000130: 66e1 11be 953e 8b3d 5d3e 613d a3c6 903c
00000140: e8ed edbd 7e00 eb3d af92 2c3d 41bd 13be
00000150: c5ec a2bd 3ab8 bc3d 1383 133e c98d e23d
00000160: 27ac 0cbd 3163 843c 6b38 82bc 3271 3d3d
00000170: 08a8 723d 98aa ddbd 717b f83c a1b3 adbc
00000180: 4cb5 e2bc 0ff1 593c cfbb 5fbc d00d f53d
00000190: b109 c63d cf59 11be 568d ed3d 7268 d8bd
000001a0: 545b c13d d701 3fbb b3f2 113c 4ec5 bebd
000001b0: 95da aabd e3a3 0d3a 3a9c 443d 6847 adbc
000001c0: 0b18 093e 79e1 72bc 96a7 913d aca8 e5bc
000001d0: 1d4b 3dbd 07a5 f13c b45c a1bd 2262 dd3c
000001e0: 4da3 e5bd ca43 fa3c b766 eebd 5807 15be
000001f0: 23fd bdbd 2ead 0f3e 1638 0cbe 8d8a 2ebd
00000200: 6f38 baba 78ac 01be 5310 d3bd 96bf 253d
00000210: 7f55 2ebd 0f0f e6bd 4ad5 883b ffb5 c53d
00000220: 7439 243d 0f46 e3bd 6a22 22bc 6d6d a5bd
00000230: 0388 17bd 9ae5 a73d a116 e0bb 2815 413c
00000240: 221f 76bd 204d b2bd 8bf2 c53d fe66 6abd
00000250: b2a3 ce3d 5cbd ffbc 0f8d 6dbd 737f 913c
00000260: deb6 e7bd 2ee5 003e 3b4f 05bd fbc9 903d
00000270: 4f00 18bc a89b 0e3e 97e8 963c 2a71 cf3d
00000280: d89f 8a3d 5636 c3bd 860e bdbc 08e2 a0bd
00000290: 7cb5 813c cd4c 613c 7eb3 cf3d 8a0a f23d
000002a0: 0e4a 983c 4ce2 a7bd 5bd2 9ebc 82a0 3ebd
000002b0: 5ff7 abbc 4d43 353d 89dd 85bd 6878 8ebd
000002c0: 1e6f bd3d 76a8 b43d 5f58 c63d 0332 b4bd
000002d0: 8672 083c f54f a83d a291 a2bd 6010 cebd
000002e0: 0ae5 c0bc 64dd 2abc 8ec6 f03c 9dca b73c
000002f0: 32b3 183e ae5a 10be caed 03bc f825 d6bd
00000300: d29f babd 123e ba3c 22aa e63d 5f3b e33b
00000310: fdbd 133c f2f1 d5bc 86fa ffbd c7b4 b23d
00000320: 4923 4abd a575 c2bb ed6f 8bbd dea1 29bc
00000330: 9554 b23d 5d22 93bc baab 12be c185 c83b
00000340: fe3b 07be e313 b8bd db16 d2bd 1490 263d
00000350: 81d4 073d a3c1 7cbd 098b 1fbd 456b 053e
00000360: 7809 a63d 2043 f63c 3df9 1d3d 394c cb3d
00000370: f7cd 2dbd 96cb c3bd 41c4 883d 049c 183d
00000380: 69df c0bd 2b53 febd cb3c a63d 043a c53d
00000390: fe2c 34bd 6fb3 1b3e d486 93bd ea19 e1bd
000003a0: f9d5 80bc 5e24 97bc f7bb 8dbd 5628 063e
000003b0: 0d4e 7e3d aa4b b1bb 0aaa 8d3d 1ccf c8bd
000003c0: c5ed da3d d24e a33d dc2d af3c 83c5 913c
000003d0: 86f8 9dbd 165f c6bd 01ca 66bd 6249 b33d
000003e0: 7dc7 1fbd f8e5 e33d eae1 16be e9d1 743d
000003f0: cc1b 9c3b 6faf 14be 2fc8 bfbd 870b 9ebd
0.035563454 -0.048184182 0.032352917 0.0003345259 -0.10101997 0.14094043 0.06839736 0.102116644
0.07776085 -0.048936497 0.09797955 -0.10104561 -0.14087442 0.08321432 0.12438579 -0.06508815
0.11478155 -0.07012279 0.104934044 0.03266477 0.0084257405 0.018597733 0.01937298 -0.0037277467
0.040574837 0.017021729 0.024886096 -0.10277124 0.08478441 0.008580591 -0.117144 -0.12924467
0.10069961 -0.012100494 -0.03313011 0.14046042 0.097215414 -0.023269717 0.0021328947 -0.10430935
-0.092545986 0.018673735 -0.124644965 -0.046609417 -0.10779474 0.009201252 -0.11159651 -0.1341904
-4.8912214e-05 -0.01047246 -0.023481196 -0.109167874 0.10889291 0.12930824 0.0022019788 0.10891227
0.04035585 -0.035081223 0.0987757 -0.10498484 0.008480321 -0.0047293385 -0.01751646 -0.078913674
0.06435483 0.07948707 -0.0054037385 0.10567618 -0.03338668 0.035713043 0.119093105 0.03823819
0.044697672 -0.06353925 0.057661608 0.046721086 -0.14246139 0.06799046 0.054991115 0.017672842
-0.11617643 0.11474703 0.042132076 -0.14427663 -0.079553165 0.09214826 0.1440547 0.110621996
-0.034343865 0.01616058 -0.015896043 0.04625053 0.05924228 -0.10823554 0.030332299 -0.021203818
-0.02767434 0.013302102 -0.013655617 0.11965525 0.09669817 -0.14194416 0.11599223 -0.10566796
0.094412476 -0.0029145384 0.008907962 -0.09314977 -0.083424725 0.0005403144 0.04800055 -0.021152213
0.13388078 -0.014824265 0.071120426 -0.02803453 -0.04621421 0.029497636 -0.0787901 0.027024332
-0.11212788 0.030549902 -0.11640685 -0.14553583 -0.092767976 0.14030907 -0.1369327 -0.0426126
-0.0014207492 -0.12663448 -0.10305848 0.040465914 -0.042562004 -0.11233341 0.0041758167 0.096538536
0.040093854 -0.11097347 -0.0098959 -0.08077512 -0.036994945 0.0819809 -0.006838635 0.011784829
-0.060088284 -0.08706117 0.09665402 -0.057227127 0.10089816 -0.031218223 -0.057995852 0.017760968
-0.11314176 0.12587425 -0.032546263 0.07069775 -0.009277417 0.13926566 0.018421454 0.10129006
0.06768769 -0.09531848 -0.023078214 -0.07855612 0.015833609 0.013751221 0.10141657 0.118184164
0.01859 -0.081974596 -0.019387415 -0.04653979 -0.02099198 0.044253636 -0.06536395 -0.069565594
0.092497095 0.08821194 0.09684824 -0.087986015 0.008328086 0.082183756 -0.079379335 -0.10061717
-0.023546714 -0.01042876 0.029391553 0.02243548 0.14912108 -0.14097092 -0.008052299 -0.10456461
-0.091125146 0.022734676 0.11262919 0.006934568 0.009017465 -0.026116345 -0.124989554 0.08725887
-0.049350057 -0.0059344345 -0.068084575 -0.010353534 0.08707539 -0.017960722 -0.14323321 0.0061194603
-0.13206479 -0.08988168 -0.102582656 0.040664747 0.033161644 -0.061708104 -0.038950954 0.13029201
0.08107275 0.030061305 0.03856777 0.09926648 -0.04243275 -0.09560315 0.066780575 0.037258163
-0.09417612 -0.12418207 0.08117064 0.09630206 -0.04398822 0.15205167 -0.07203451 -0.10991271
-0.01572703 -0.018449958 -0.06920617 0.13101324 0.062086154 -0.005410631 0.06917198 -0.09805128
0.10689882 0.07974018 0.021384172 0.017794376 -0.07713418 -0.09686105 -0.05634499 0.08754231
-0.039008606 0.111278474 -0.14734617 0.0597705 0.004764056 -0.14520048 -0.09364354 -0.077170424

lstm.weight_hh_l0 f4 [256, 64]
00000000: bab1 c3bd d3ec e2ba 6be8 363d ac46 d03b
00000010: 8add 3fbd 4bda 50bd 39a9 5a3c 5f24 d6bc
00000020: a244 f13d 9371 273e 12fe b83d 84e6 03bd
00000030: f1ab bfbc a050 0e3d ee7c c13d 580f 453c
00000040: 3e21 8e3d 3ca5 e73d 5e73 a73b 52da a23b
00000050: 8f78 a5bd aaa5 e83d 892a 12bd 6b26 f5bc
00000060: 51e1 b93d 5ceb 0e3c 59fa a8bd ed31 38b9
00000070: 708c 45bd a718 71bd bbf1 f0bc 6f25 acbc
00000080: 3552 09bd 5e53 08bd c7e9 22bd cb46 413d
00000090: b336 583e 388e 063e eb97 ee3c a12f 673c
000000a0: eb6f f63c 4243 303d b5d8 013c 9980 fabd
000000b0: ea6d 313a bdfc 933d 3167 dc3b 421b 363e
000000c0: 9d09 d1bc 0146 99bd 4976 88bd 0065 50bd
000000d0: 9eb5 99bd d85f 34bd 9cb6 76bc aa63 543d
000000e0: 137e 843d d3c1 aabb 82be 30ba 6be2 803c
000000f0: 2b89 3f3d 1049 5fbc e247 ebbd 3ba1 c13d
00000100: d82d 9a3d 7268 523d 525f 583d 5da6 05be
00000110: c756 e6bd 1604 963d 78e4 b8bc d0ad 64bd
00000120: d743 4f3d d7e9 893d 1529 c13d d2a7 d2bd
00000130: 4ed5 de3d aded 59bd dce6 633d 514d 0d3d
00000140: 2fa9 10bc f9ae 68bd 848d 33bd 7a76 343e
00000150: 0ebf 353c 95e6 5dbd 5161 013d a0a6 18be
00000160: 3e75 adbd a5a3 a33c f8d6 b13c 427a a53b
00000170: 0491 b8bc 598a cfbb be8f d4bb cc74 57ba
00000180: cf0a bf3d f06c b43d 0b9a 47bd d7ac 9f3c
00000190: 816e f4bc 05ed 95bc b87f ae3d 18a3 e73d
000001a0: 9dea 9a3d a1c7 613c 57ce f0bc 47ce 7538
000001b0: f092 20bd 5336 98bc ff9a 67bc 3411 933c
000001c0: 722d e53d 57ba 8a3c 2892 68bd c127 1c3c
000001d0: 0257 8a3d f23e 87bc 9aef 5abd 24e4 e7bc
000001e0: a78d bc3d 2693 f43d cb4f 2c3d c031 89bc
000001f0: d4d1 5bbd 7608 913c 898d dd3b bbe7 57bd
00000200: 5744 813c a535 97bd 7423 053d bedc 62bc
00000210: 9088 29bd 0b94 0dbc c179 2bbc 4b55 60bd
00000220: 61c4 33bd eea3 aebc 94dc abbd 980e 1f3c
00000230: 7b65 55bd 1c17 2dbd 582c f33d 5ee1 8dbd
00000240: 6abb f3bc 10b5 803d a58c 94bd cb65 9d3c
00000250: 66ac 83bd 4211 b43c 8d30 d03c 913d ec3c
00000260: 32ed 91bd 9fcf 41bd 53d9 883c 1dad 01b6
00000270: 8ba0 f73c 7452 633e c65d 90bd 8e84 4f3c
00000280: b824 ecbd 92af c6bc c22a 8d3d e872 a2bd
00000290: 9dac acbb 2408 d1bd a218 8d3c f350 a9bd
000002a0: ec74 1bbc d001 78bd c1af 893c 269a 1f3d
000002b0: 54e5 8c3c 54a0 f03c e9b8 7c3c e7af 82bb
000002c0: d355 623c 4602 22bd c062 c8bc 37e1 dd3c
000002d0: 8e4f a43c ef4e 37bc 7a71 d9bd 15dc 353d
000002e0: 6b1e 53bc c259 493d cb5b 2a3e dd4d 0b3c
000002f0: 7819 573d 1262 4fbb 84ab 643d 8121 73bb
00000300: 7261 33bd 932f 4b3c 32a1 b73d c308 a23d
00000310: 539e 0b3d d95e 7fbd 0c70 f6bc e2cc afbd
00000320: 771a 993d 4fa6 d23b d5aa 043d afa3 c63c
00000330: ca93 9b3c 4245 19bd 2320 973d d62f 033d
00000340: e6b1 16be 5d57 64bd ef29 1b3c 146e 853c
00000350: 71c3 553d 0eec e33c 48d5 e4bd 9093 7bbc
00000360: 77b1 51bd 3b81 92bd 0682 ff3d 0ff5 51bc
00000370: 6b9e babc 2569 9f3c d7d8 79bd f763 b73d
00000380: a95f 153c 88d2 093e 5707 c4bc c8b9 40bc
00000390: afe5 a73d 1cc4 37be 29cc 883c d236 3ebd
000003a0: 179a 48bd b16f 86bd efbc 32bd 17dd 1dbd
000003b0: c763 2fbc 756b 7a3d a3b1 7c3d e8fb 25be
000003c0: d8b3 433d b005 b9bc ab3c e9bc ee46 27bd
000003d0: 90fe 40bc 6608 9b3d 0f25 7ebd 78b1 dfbc
000003e0: ff73 21bd 8e95 343d 83ab b43d 8cc4 74b9
000003f0: 087f ec3b f08f b73d 8c3c 69bc fd2f 26bd
-0.09555383 -0.0017313011 0.044655245 0.006356081 -0.046842135 -0.05098943 0.01334601 -0.02614039
0.11780669 0.16351919 0.09032835 -0.03220226 -0.023397418 0.03474486 0.094476566 0.012027584
0.06939934 0.11310813 0.0051101884 0.0049698735 -0.08079635 0.11359723 -0.035685096 -0.029925546
0.09076179 0.008723106 -0.08250875 -0.00017566206 -0.048229635 -0.0588614 -0.029412141 -0.021013943
-0.033525664 -0.03328263 -0.03977373 0.047186654 0.21114616 0.1314019 0.029125175 0.014110477
0.030082664 0.043032892 0.007925202 -0.12231559 0.00067683926 0.072259404 0.0067261686 0.17783836
-0.02551728 -0.07484055 -0.06663186 -0.05087757 -0.07505344 -0.044036716 -0.015058186 0.05185286
0.06469359 -0.005211094 -0.0006742255 0.015732965 0.046761673 -0.013628259 -0.1148832 0.094545804
0.07528275 0.051369138 0.05282528 -0.13051744 -0.1124702 0.07324998 -0.02256988 -0.055829823
0.050601806 0.067340545 0.09431664 -0.102859154 0.108805284 -0.05320518 0.055640087 0.034497563
-0.008829399 -0.056807492 -0.04383613 0.1762332 0.011092914 -0.05417498 0.03158695 -0.14907312
-0.08469628 0.019975493 0.02170895 0.0050499747 -0.022530086 -0.006333631 -0.006486862 -0.0008219003
0.093282335 0.08809841 -0.04873089 0.019491596 -0.029837849 -0.018301496 0.08520454 0.113104045
0.0756428 0.013780505 -0.029395266 5.8604663e-05 -0.03920263 -0.018580591 -0.014136075 0.017952539
0.11190309 0.016934557 -0.05678001 0.009530962 0.06754877 -0.016509507 -0.053451158 -0.028307028
0.092067055 0.11942129 0.042068284 -0.016747355 -0.053666905 0.01770423 0.006761257 -0.05271123
0.015779657 -0.07383279 0.032504514 -0.013846574 -0.04139 -0.008641253 -0.01046604 -0.05476884
-0.043888453 -0.021318402 -0.08391681 0.009708069 -0.052098732 -0.042258367 0.11873692 -0.06927751
-0.029752452 0.06284535 -0.07253388 0.019213578 -0.06429367 0.021980885 0.025413776 0.02883795
-0.071253195 -0.047317144 0.01670519 -1.9323263e-06 0.03022792 0.22199422 -0.07049136 0.012665881
-0.11530441 -0.02425364 0.06892921 -0.07932073 -0.0052696005 -0.10206631 0.01722366 -0.08267393
-0.009488326 -0.060548604 0.016807439 0.038965367 0.017199196 0.029373325 0.015424945 -0.0039882543
0.013814407 -0.03955295 -0.02446115 0.02708493 0.020057466 -0.011188253 -0.10617347 0.04439934
-0.01288567 0.049157865 0.16636579 0.008502451 0.052514523 -0.0031644148 0.055827633 -0.0037098827
-0.043794103 0.012401479 0.089662924 0.079118274 0.034086537 -0.062346313 -0.030082725 -0.08584
0.07475751 0.006428517 0.03238948 0.024247972 0.01899137 -0.037419565 0.073791765 0.03202804
-0.147163 -0.05574738 0.009470447 0.01628784 0.05218834 0.02782252 -0.11173493 -0.015355006
-0.051194634 -0.07153555 0.12475972 -0.012814774 -0.022780618 0.019459317 -0.06099781 0.08954614
0.009117045 0.13459218 -0.023929281 -0.011763044 0.081981055 -0.17945904 0.016698914 -0.046439
-0.048975077 -0.06564272 -0.043637212 -0.038540926 -0.010704941 0.061137635 0.061692845 -0.16209376
0.047778934 -0.02258572 -0.028471312 -0.04083913 -0.011779442 0.07569961 -0.06204706 -0.027306303
-0.039417263 0.04408794 0.08821776 -0.00023342873 0.0072172917 0.08963001 -0.014235627 -0.04057311

lstm.bias_ih_l0 f4 [256]
00000000: 5d60 9bbc ed81 91bc c8a4 c93c ab74 e43b
00000010: 4ce6 d0bc e4fa 91bc 40c5 19bd 52f8 e93b
00000020: adea 72bc 5e2c 07bc b5c7 6d3b a796 1c3c
00000030: 3e4d 1f3b cbd9 9e3a 3020 5dba 60a8 303d
00000040: 7ec3 bfbb 214d 383c a20c 9cbc 7cd0 173c
00000050: 2b99 a6bc 48ca 953c 7ff5 133c 9b88 c8bc
00000060: dbdb 1a3c 05b3 933c b98f 8bbb eb25 08ba
00000070: 898f 313c c6e3 823c 2115 91bc 7947 283c
00000080: 25ae 79bb ee11 38bc cae2 143c 5246 10bc
00000090: 2efe 48bc 30a7 f3bc e912 9a3c ddf4 fdbc
000000a0: f452 d23a 6d02 8c3b cdf2 a23b bd35 873c
000000b0: f35d 67bc d0fd 543c 359c 00bd 8146 d3bb
000000c0: 43f0 92bc aa68 b1bb c585 7dbb 366c 7fbc
000000d0: 5904 adbc 2788 af3a 1ca3 c73b 4947 03bd
000000e0: 68bb 033c 526e 863c a17f 363b d751 acbc
000000f0: dc20 993b 5a8e ecbb d784 e3bb 8aff afb9
00000100: 1185 7b3f 0c7b 7b3f a920 833f e653 813f
00000110: fb57 773f f067 7b3f 3a69 763f dc6c 813f
00000120: b1d9 7d3f 712d 7e3f 3500 823f 3448 813f
00000130: 982b 803f 7004 7f3f 2726 823f 3f5d 843f
00000140: dad8 813f 847e 813f 766a 7c3f 947b 823f
00000150: f117 7b3f ca0f 803f e1ea 813f fe6a 793f
00000160: 7b05 823f c7f8 823f 9a48 803f 3033 7e3f
00000170: 05c6 803f a9f8 813f 3de6 7b3f 3695 833f
00000180: fc73 803f 770f 7d3f 5745 823f 1206 7c3f
00000190: 9ed4 7b3f f8b3 7a3f 9622 823f 36a9 793f
000001a0: 9049 7f3f 0057 803f a46e 803f 95e6 823f
000001b0: cc52 7b3f a6e9 803f c6f5 793f 4326 7e3f
000001c0: 9dcb 7a3f 583c 7f3f 47b8 7e3f e785 7b3f
000001d0: aed5 7b3f c21f 833f 7d20 813f 700f 793f
000001e0: bf5c 803f 8e3f 813f 2178 813f 479a 793f
000001f0: 2ee5 7e3f 66fd 813f 812e 7f3f 5ac5 7f3f
00000200: 735c d03c 03b9 d3bb 8de9 c33c ec09 b7bc
00000210: b9df 83bc e1f3 0f3c e7b3 943b 51f1 80bc
00000220: 43f2 cebc 80c2 90bc b25a cebc 5f29 6f3c
00000230: bcff b73c da47 d93c bc17 de3c 3121 f0bc
00000240: 58d4 dcbc 8c50 083d dae1 b53c 36f4 dabc
00000250: 6367 aebc e251 b6bc e1f9 d1bc 2f79 0a3d
00000260: de91 d7bc da06 e03c 08ef 963c abf3 06bb
00000270: 91e3 713c f93c ea3c f2b1 fcbc 7cdc d7bc
00000280: f989 1bbc ee75 b5bc d9ed edbc d2ea 833c
00000290: e8e1 18bd c4ff 303c 7833 ce3c 1978 afbc
000002a0: b974 98bc b85b f2bc f1ff 8ebc c582 ed3c
000002b0: aeaa 21bc 729e ad3c e456 a03c aff7 a93c
000002c0: 5f5f 1a3c 6877 083d cbfc f33c 4fb5 703c
000002d0: 5697 193c 9844 233d dc0f a8bc 20d0 053c
000002e0: c80b e5bc 7f29 e83c eaa6 19bc 4796 303c
000002f0: ecd2 8b3c 49df da3c 2c88 bb3c d6f3 e0bc
00000300: 2540 8dbc a368 acbc ca09 343d a201 bf3b
00000310: a5a6 d1bc 9bf0 dfbc b993 f0bc 7b8b f13c
00000320: bd05 31bc 10a6 e53b 5ec1 2b3c 1d74 a13c
00000330: 66ea c53a b3ab 0fbc 55c2 1e3b 112e 9b3d
00000340: d26b 40bc 07bd da3c 1113 583c f8c0 0d3d
00000350: 9b1e 1bbc 36a3 b43b 4d17 1b3d 62f3 85bc
00000360: 2c3d 893c 5faf 423d 8e67 36bb 9298 d4bb
00000370: 5eed 233c b002 d23c 1c8f 35bc ef26 5a3d
00000380: f4fd 8fbc f234 55bc e552 363d 409a 97bc
00000390: 6ff4 b9bb 4b7b 67bc 73d0 f23c d069 c4bc
000003a0: 466d 1f3c 2074 b33b 06dd f43c 2027 f23c
000003b0: b1bf e6bc e347 9f3c 1e54 81ba 7df4 2bbc
000003c0: bfb1 edbc de08 08bc 3db7 4a3c 007d 35bc
000003d0: 7069 c1bc 79a2 1d3d f4dc 0bbc 85b0 b6bc
000003e0: 3eec 9d3c 4c5c 1f3c 1190 59bc 0aeb 5cbc
000003f0: 8ec7 4bbc 90be a93c 1ec1 f23b 55f9 26b9
-0.018966848 -0.017762149 0.024614707 0.0069719157 -0.02550044 -0.01781983 -0.037541628 0.007140198
-0.014826459 -0.008250324 0.0036282365 0.009557403 0.0024307515 0.0012119351 -0.0008435277 0.043129325
-0.005852162 0.011248858 -0.019048993 0.009266015 -0.020336708 0.018284932 0.009030699 -0.024479201
0.009451832 0.0180297 -0.0042590764 -0.00051936385 0.010837444 0.015977751 -0.01771027 0.010270947
-0.0038098183 -0.0112347435 0.009087274 -0.008805828 -0.012267632 -0.029742807 0.018807845 -0.031000549
0.001604645 0.00427275 0.0049727918 0.016505117 -0.01412152 0.012999967 -0.03139897 -0.0064476137
-0.017936831 -0.0054140883 -0.003868447 -0.015589764 -0.021120237 0.0013392017 0.006092442 -0.032050405
0.008040287 0.016410027 0.002784707 -0.021035118 0.0046731066 -0.007219118 -0.006943326 -0.00033568993
0.9824992 0.9823463 1.0244342 1.0103729 0.9661862 0.9820547 0.96254313 1.0111346
0.99160296 0.9928809 1.0156313 1.010016 1.0013304 0.99616146 1.0167893 1.0340956
1.0144303 1.0116735 0.98599946 1.0193963 0.98083407 1.0004818 1.0149804 0.9742888
1.0157923 1.0232171 1.0022156 0.99296856 1.0060431 1.015401 0.9839819 1.027991
1.0035396 0.9885172 1.0177411 0.9844676 0.98371303 0.9793086 1.0166805 0.9752382
0.9972162 1.002655 1.0033765 1.0226618 0.98173213 1.0071304 0.97640646 0.9927713
0.9796694 0.9970145 0.99499935 0.98251194 0.98372924 1.0244067 1.008804 0.9728918
1.0028304 1.009752 1.0114785 0.97501034 0.9956845 1.0155456 0.99680334 0.9991051
0.025434708 -0.006461264 0.023915077 -0.022343598 -0.01609789 0.008786173 0.0045380476 -0.015740069
-0.025262004 -0.01767087 -0.025189731 0.014597266 0.02246081 0.02652352 0.027110927 -0.029312702
-0.026956722 0.03327994 0.022202421 -0.026727777 -0.021289533 -0.022255842 -0.025631847 0.033806976
-0.026314672 0.027347017 0.018424526 -0.0020592015 0.014763729 0.028593527 -0.03084657 -0.026350252
-0.009493344 -0.02215096 -0.029044079 0.016103182 -0.037324816 0.010803167 0.025171027 -0.021419572
-0.018610345 -0.02958475 -0.017456027 0.02899302 -0.009867353 0.021193717 0.019572683 0.020747988
0.009422152 0.033317 0.029783627 0.014691665 0.00937446 0.039860338 -0.020515375 0.008167297
-0.02795972 0.0283401 -0.009378174 0.010778016 0.017068349 0.026717799 0.02289208 -0.02746002
-0.0172425 -0.021045988 0.043954648 0.005829052 -0.025592158 -0.02733641 -0.029367315 0.029485455
-0.010804591 0.0070083216 0.010483114 0.019708687 0.0015099763 -0.008768964 0.0024224718 0.07577146
-0.011744456 0.026701463 0.01318814 0.034607857 -0.009467746 0.0055126203 0.03786402 -0.016351406
0.016752802 0.04753053 -0.002783272 -0.0064879144 0.010005323 0.025636047 -0.011081483 0.053259786
-0.017577149 -0.013013111 0.044512648 -0.01850617 -0.0056748907 -0.014128516 0.029640412 -0.023976237
0.009730643 0.0054764897 0.029890548 0.029559672 -0.028167577 0.019443458 -0.0009866988 -0.010495302
-0.02901542 -0.008302895 0.012372789 -0.011077166 -0.023609847 0.038485024 -0.008536566 -0.022300968
0.019277688 0.009726595 -0.013278977 -0.013483772 -0.012437714 0.02072075 0.0074082753 -0.00015923877

lstm.bias_hh_l0 f4 [256]
00000000: 5d60 9bbc ed81 91bc c8a4 c93c ab74 e43b
00000010: 4ce6 d0bc e4fa 91bc 40c5 19bd 52f8 e93b
00000020: adea 72bc 5e2c 07bc b5c7 6d3b a796 1c3c
00000030: 3e4d 1f3b cbd9 9e3a 3020 5dba 60a8 303d
00000040: 7ec3 bfbb 214d 383c a20c 9cbc 7cd0 173c
00000050: 2b99 a6bc 48ca 953c 7ff5 133c 9b88 c8bc
00000060: dbdb 1a3c 05b3 933c b98f 8bbb eb25 08ba
00000070: 898f 313c c6e3 823c 2115 91bc 7947 283c
00000080: 25ae 79bb ee11 38bc cae2 143c 5246 10bc
00000090: 2efe 48bc 30a7 f3bc e912 9a3c ddf4 fdbc
000000a0: f452 d23a 6d02 8c3b cdf2 a23b bd35 873c
000000b0: f35d 67bc d0fd 543c 359c 00bd 8146 d3bb
000000c0: 43f0 92bc aa68 b1bb c585 7dbb 366c 7fbc
000000d0: 5904 adbc 2788 af3a 1ca3 c73b 4947 03bd
000000e0: 68bb 033c 526e 863c a17f 363b d751 acbc
000000f0: dc20 993b 5a8e ecbb d784 e3bb 8aff afb9
00000100: 1185 7b3f 0c7b 7b3f a920 833f e653 813f
00000110: fb57 773f f067 7b3f 3a69 763f dc6c 813f
00000120: b1d9 7d3f 712d 7e3f 3500 823f 3448 813f
00000130: 982b 803f 7004 7f3f 2726 823f 3f5d 843f
00000140: dad8 813f 847e 813f 766a 7c3f 947b 823f
00000150: f117 7b3f ca0f 803f e1ea 813f fe6a 793f
00000160: 7b05 823f c7f8 823f 9a48 803f 3033 7e3f
00000170: 05c6 803f a9f8 813f 3de6 7b3f 3695 833f
00000180: fc73 803f 770f 7d3f 5745 823f 1206 7c3f
00000190: 9ed4 7b3f f8b3 7a3f 9622 823f 36a9 793f
000001a0: 9049 7f3f 0057 803f a46e 803f 95e6 823f
000001b0: cc52 7b3f a6e9 803f c6f5 793f 4326 7e3f
000001c0: 9dcb 7a3f 583c 7f3f 47b8 7e3f e785 7b3f
000001d0: aed5 7b3f c21f 833f 7d20 813f 700f 793f
000001e0: bf5c 803f 8e3f 813f 2178 813f 479a 793f
000001f0: 2ee5 7e3f 66fd 813f 812e 7f3f 5ac5 7f3f
00000200: 735c d03c 03b9 d3bb 8de9 c33c ec09 b7bc
00000210: b9df 83bc e1f3 0f3c e7b3 943b 51f1 80bc
00000220: 43f2 cebc 80c2 90bc b25a cebc 5f29 6f3c
00000230: bcff b73c da47 d93c bc17 de3c 3121 f0bc
00000240: 58d4 dcbc 8c50 083d dae1 b53c 36f4 dabc
00000250: 6367 aebc e251 b6bc e1f9 d1bc 2f79 0a3d
00000260: de91 d7bc da06 e03c 08ef 963c abf3 06bb
00000270: 91e3 713c f93c ea3c f2b1 fcbc 7cdc d7bc
00000280: f989 1bbc ee75 b5bc d9ed edbc d2ea 833c
00000290: e8e1 18bd c4ff 303c 7833 ce3c 1978 afbc
000002a0: b974 98bc b85b f2bc f1ff 8ebc c582 ed3c
000002b0: aeaa 21bc 729e ad3c e456 a03c aff7 a93c
000002c0: 5f5f 1a3c 6877 083d cbfc f33c 4fb5 703c
000002d0: 5697 193c 9844 233d dc0f a8bc 20d0 053c
000002e0: c80b e5bc 7f29 e83c eaa6 19bc 4796 303c
000002f0: ecd2 8b3c 49df da3c 2c88 bb3c d6f3 e0bc
00000300: 2540 8dbc a368 acbc ca09 343d a201 bf3b
00000310: a5a6 d1bc 9bf0 dfbc b993 f0bc 7b8b f13c
00000320: bd05 31bc 10a6 e53b 5ec1 2b3c 1d74 a13c
00000330: 66ea c53a b3ab 0fbc 55c2 1e3b 112e 9b3d
00000340: d26b 40bc 07bd da3c 1113 583c f8c0 0d3d
00000350: 9b1e 1bbc 36a3 b43b 4d17 1b3d 62f3 85bc
00000360: 2c3d 893c 5faf 423d 8e67 36bb 9298 d4bb
00000370: 5eed 233c b002 d23c 1c8f 35bc ef26 5a3d
00000380: f4fd 8fbc f234 55bc e552 363d 409a 97bc
00000390: 6ff4 b9bb 4b7b 67bc 73d0 f23c d069 c4bc
000003a0: 466d 1f3c 2074 b33b 06dd f43c 2027 f23c
000003b0: b1bf e6bc e347 9f3c 1e54 81ba 7df4 2bbc
000003c0: bfb1 edbc de08 08bc 3db7 4a3c 007d 35bc
000003d0: 7069 c1bc 79a2 1d3d f4dc 0bbc 85b0 b6bc
000003e0: 3eec 9d3c 4c5c 1f3c 1190 59bc 0aeb 5cbc
000003f0: 8ec7 4bbc 90be a93c 1ec1 f23b 55f9 26b9
-0.018966848 -0.017762149 0.024614707 0.0069719157 -0.02550044 -0.01781983 -0.037541628 0.007140198
-0.014826459 -0.008250324 0.0036282365 0.009557403 0.0024307515 0.0012119351 -0.0008435277 0.043129325
-0.005852162 0.011248858 -0.019048993 0.009266015 -0.020336708 0.018284932 0.009030699 -0.024479201
0.009451832 0.0180297 -0.0042590764 -0.00051936385 0.010837444 0.015977751 -0.01771027 0.010270947
-0.0038098183 -0.0112347435 0.009087274 -0.008805828 -0.012267632 -0.029742807 0.018807845 -0.031000549
0.001604645 0.00427275 0.0049727918 0.016505117 -0.01412152 0.012999967 -0.03139897 -0.0064476137
-0.017936831 -0.0054140883 -0.003868447 -0.015589764 -0.021120237 0.0013392017 0.006092442 -0.032050405
0.008040287 0.016410027 0.002784707 -0.021035118 0.0046731066 -0.007219118 -0.006943326 -0.00033568993
0.9824992 0.9823463 1.0244342 1.0103729 0.9661862 0.9820547 0.96254313 1.0111346
0.99160296 0.9928809 1.0156313 1.010016 1.0013304 0.99616146 1.0167893 1.0340956
1.0144303 1.0116735 0.98599946 1.0193963 0.98083407 1.0004818 1.0149804 0.9742888
1.0157923 1.0232171 1.0022156 0.99296856 1.0060431 1.015401 0.9839819 1.027991
1.0035396 0.9885172 1.0177411 0.9844676 0.98371303 0.9793086 1.0166805 0.9752382
0.9972162 1.002655 1.0033765 1.0226618 0.98173213 1.0071304 0.97640646 0.9927713
0.9796694 0.9970145 0.99499935 0.98251194 0.98372924 1.0244067 1.008804 0.9728918
1.0028304 1.009752 1.0114785 0.97501034 0.9956845 1.0155456 0.99680334 0.9991051
0.025434708 -0.006461264 0.023915077 -0.022343598 -0.01609789 0.008786173 0.0045380476 -0.015740069
-0.025262004 -0.01767087 -0.025189731 0.014597266 0.02246081 0.02652352 0.027110927 -0.029312702
-0.026956722 0.03327994 0.022202421 -0.026727777 -0.021289533 -0.022255842 -0.025631847 0.033806976
-0.026314672 0.027347017 0.018424526 -0.0020592015 0.014763729 0.028593527 -0.03084657 -0.026350252
-0.009493344 -0.02215096 -0.029044079 0.016103182 -0.037324816 0.010803167 0.025171027 -0.021419572
-0.018610345 -0.02958475 -0.017456027 0.02899302 -0.009867353 0.021193717 0.019572683 0.020747988
0.009422152 0.033317 0.029783627 0.014691665 0.00937446 0.039860338 -0.020515375 0.008167297
-0.02795972 0.0283401 -0.009378174 0.010778016 0.017068349 0.026717799 0.02289208 -0.02746002
-0.0172425 -0.021045988 0.043954648 0.005829052 -0.025592158 -0.02733641 -0.029367315 0.029485455
-0.010804591 0.0070083216 0.010483114 0.019708687 0.0015099763 -0.008768964 0.0024224718 0.07577146
-0.011744456 0.026701463 0.01318814 0.034607857 -0.009467746 0.0055126203 0.03786402 -0.016351406
0.016752802 0.04753053 -0.002783272 -0.0064879144 0.010005323 0.025636047 -0.011081483 0.053259786
-0.017577149 -0.013013111 0.044512648 -0.01850617 -0.0056748907 -0.014128516 0.029640412 -0.023976237
0.009730643 0.0054764897 0.029890548 0.029559672 -0.028167577 0.019443458 -0.0009866988 -0.010495302
-0.02901542 -0.008302895 0.012372789 -0.011077166 -0.023609847 0.038485024 -0.008536566 -0.022300968
0.019277688 0.009726595 -0.013278977 -0.013483772 -0.012437714 0.02072075 0.0074082753 -0.00015923877

lstm.weight_ih_l0_reverse f4 [256, 64]
00000000: 9e2c 48bd 1b89 39bc 68a3 793d 50a5 da3d
00000010: 66f9 013e 85d2 ee3d 90f1 56bd 80de 9cbc
00000020: 3fac 03bd 7487 9c3d 0454 7d3d b6ac f9ba
00000030: 3425 4b3d 7f65 d3bd 0d3d dfbd 3a8d e9bc
00000040: fd85 1abd 1d73 0ebe 84b2 99bd a5cc 1c3d
00000050: 94e8 a7bd fb80 473d 8f7b 81bd a893 61bd
00000060: 822b d23d 67a1 013e 6f89 e5bd a3c8 75bd
00000070: fd63 173e aec0 1cbd 744f 4d3d 328f 20bb
00000080: 53cc 76bd b68b aa3d d1ce 703d 26fb 1ebe
00000090: 9768 74bc aa3f f03d 41ee 603d 3671 86bd
000000a0: 9148 f4bd d922 763c 4dcd d63c 5ed2 a039
000000b0: aef5 963d 093c a4bd 3d1c 863d bfd7 7bbd
000000c0: 32c4 00bd 4312 8f3b 8ce8 f5bd ae4d eebd
000000d0: 3798 943d 9350 24bb dbcf 03bd 7b86 713d
000000e0: c475 1fbd 7151 d73d 4b28 01be 8725 d13d
000000f0: 2e25 d53d 8c19 f2bb c022 c2bc fc65 aebd
00000100: 5166 cebd 08ee 17bb 1f6e b13d eec8 aebd
00000110: 4e40 9e3d 5d03 03be c001 0a3b 5962 4f3d
00000120: 39e1 10bd 90db fe3d baf2 c3bd e7b9 33bd
00000130: e8b6 a0bd 82a3 40bc 21f0 e1bd c26d dc3d
00000140: 1e3a dc3d 0c04 843c f5b4 0a3c d31e 483d
00000150: 042e b93d b910 613d 1bd8 aabd 083e d8bc
00000160: 35ca 133e a7ae b73d fd35 edbd 388a 953c
00000170: 05b8 a5bd badc e8bd 66a7 03be 1ea6 debc
00000180: a973 a9bd ccd6 dabc 5e27 71bd 9569 053c
00000190: 5c4f efba c945 b03d a189 a13c fca3 443d
000001a0: b066 efbd bfc0 dabc b985 d9bc 30f6 d7b8
000001b0: 3aa7 f93b 1d01 9cbd 26a7 c4bd 1a89 743d
000001c0: 485e b6bd d81d d9bd 689c 9d3d eacb 83bd
000001d0: 8fc9 0a3c 3638 fc3d 20c0 073c f004 58bd
000001e0: bdd7 0b3e 3f1e d8bd ead4 f6bd 265e d8bd
000001f0: d28b 533d 90e1 06bd 636d eb3c 5cec 5b3c
00000200: 6cce fbbd 97d0 1dbe aad7 cebd 6a80 c53d
00000210: 292a cdbd ad88 e23d 236d ec3c eca3 11be
00000220: ec62 b73c 6f44 0bbe 65e4 ccbd ac27 393d
00000230: 9a9e 09be c1d2 913d 8c42 153e 74be 04be
00000240: 3bc2 af3d a1c0 c63d ed0d e0bc fbaa 2c3d
00000250: b70b ae3c b0db 26be fd41 003e bba4 9fbc
00000260: b8af 95bb dcc5 62bd a55f 87bd 3bc8 273d
00000270: c619 043e 4a2d b13d 1a26 183e 69f5 d6bd
00000280: f027 23be 434e fdbc f79d e9bd ed34 ffbc
00000290: e6d7 f4bd 7965 b63d 903b ad3d 6342 10bd
000002a0: 410b ac3d 421e 15bd 2eaa 753d 9a54 08be
000002b0: 758f ca3b 36b1 003c a33e c63d 78e9 80bd
000002c0: 63f5 9d3d a3f7 0fbe 8cd5 c53d a117 973d
000002d0: 0110 02bc a469 dabd 67ab e43d 34bf 69bd
000002e0: c62e 8f3c 6eaa 893d ca87 e8bd 5c7b f63d
000002f0: dd00 a5bd f612 653d 5472 cbbd 4c3a 273d
00000300: 7535 433d d011 b33c 248b 0fbe 5f79 21bd
00000310: 9e9f 8dbd 9cac 1c3d 56d2 36bc 48fd 0c3e
00000320: 3483 90bb 27c2 0f3d 769a bcbd 92ab 7f3c
00000330: 45f2 cc3d 6dff 57bb 10e2 e93d 5b99 16be
00000340: 19a8 46bc c541 b43d ee71 ddbd 36da 243b
00000350: 68bb c43c c89b fdbd c7a9 053d 2cc0 96bd
00000360: f0aa f43d 2cb9 9a3d a853 863d da29 5abd
00000370: 73f1 c8bd 5079 8fbd 5cbf 0d3e b7d8 a13d
00000380: a767 0bbe 6c63 d8bb 6fe3 8f39 39b0 093e
00000390: fbdb a03d d53c c2bd 0ed3 d9bc 9a4e 10be
000003a0: 82eb 1a3d 81eb 1e3e 9647 b0bd 7fc0 ebbd
000003b0: 03a4 093d 2a30 6e3c 5bfe 1dbe 71a4 94bd
000003c0: 98a0 a83d b6ab 8fbd 5dd3 c9bc 4916 8f3d
000003d0: d3f4 ba3d 17eb f23c d7a0 b73d d6fa 7e3d
000003e0: 4845 b23d acca b93d 447a 0e3e 2b2f 79bd
000003f0: 3f3b a1bd 5d80 953c 598c 29bd dfc4 02bd
-0.048870675 -0.011324192 0.060946852 0.10676062 0.12692794 0.11661247 -0.052476466 -0.019149065
-0.03214669 0.07643023 0.0618477 -0.0019048664 0.049596027 -0.10322093 -0.109003164 -0.028509725
-0.037725437 -0.139111 -0.07504752 0.0382811 -0.08198658 0.04870699 -0.06322395 -0.055072457
0.10262205 0.12659226 -0.11207854 -0.060005795 0.14784236 -0.03826969 0.0501246 -0.0024499414
-0.060253453 0.08327429 0.058790985 -0.15525493 -0.014917514 0.11730893 0.054914717 -0.06564562
-0.119279034 0.015022957 0.026220942 0.00030674314 0.073710784 -0.08019263 0.06548355 -0.06148505
-0.031437106 0.0043661906 -0.120072454 -0.1163591 0.07255595 -0.002507244 -0.03218065 0.05896614
-0.03893067 0.105135806 -0.12613027 0.10212236 0.10407482 -0.0073882993 -0.02369821 -0.08515546
-0.10078109 -0.002318265 0.08663582 -0.08534418 0.07727109 -0.12794252 0.0021058172 0.0506309
-0.03537104 0.12444222 -0.09567781 -0.043878462 -0.078473866 -0.011757733 -0.11032129 0.10763122
0.107532725 0.016115211 0.008465995 0.04885752 0.0904198 0.05494759 -0.08342 -0.026396766
0.14432605 0.08968859 -0.11582563 0.018254384 -0.080917396 -0.11370225 -0.12856826 -0.02717882
-0.082740135 -0.026713751 -0.058875434 0.0081428485 -0.0018257904 0.086070605 0.019718947 0.04800795
-0.11689508 -0.026703237 -0.026553022 -0.00010297855 0.007618812 -0.076174 -0.096021935 0.059701063
-0.089047015 -0.10601395 0.07695848 -0.06435378 0.008470907 0.12315409 0.008285552 -0.052739084
0.13656516 -0.10552644 -0.12052329 -0.105648324 0.051647015 -0.032929957 0.028738683 0.013423052
-0.12295231 -0.15411602 -0.100997284 0.09643634 -0.10017807 0.11061225 0.028860634 -0.14222687
0.022386037 -0.13600324 -0.100045 0.04520385 -0.13439408 0.07120276 0.14576167 -0.12963277
0.085819684 0.0970471 -0.02735039 0.042155247 0.02124582 -0.16294742 0.12525173 -0.01948773
-0.0045680664 -0.055364475 -0.066100396 0.04096244 0.12900457 0.08651216 0.14858285 -0.10496027
-0.15933204 -0.030921107 -0.114070825 -0.031153167 -0.11955242 0.08906073 0.08458626 -0.03521956
0.08400584 -0.03640581 0.05997675 -0.13313523 0.006181652 0.00785475 0.09679916 -0.06294531
0.077128194 -0.1405931 0.096598715 0.07377554 -0.007938386 -0.106646806 0.11165505 -0.05706711
0.017478358 0.0672196 -0.11354025 0.12035248 -0.08056805 0.055926286 -0.09933916 0.04082708
0.047658402 0.02185908 -0.14017922 -0.03942239 -0.0691521 0.03825055 -0.011158546 0.13768494
-0.004410172 0.035097267 -0.092091486 0.01560487 0.10007147 -0.0032958642 0.11420071 -0.14706938
-0.012125039 0.08801607 -0.10812746 0.0025154478 0.024015144 -0.123832285 0.032632615 -0.073608726
0.11946666 0.0755485 0.06558925 -0.05326257 -0.09811678 -0.070055604 0.13842529 0.07902663
-0.13613759 -0.006603649 0.00027444537 0.1344613 0.07854458 -0.09484259 -0.026589897 -0.14092484
0.037822254 0.15519525 -0.08607404 -0.11511325 0.03360368 0.01453785 -0.1542906 -0.07257927
0.08233756 -0.07015173 -0.024636919 0.069866724 0.09128728 0.029653115 0.08966225 0.062250935
0.087046206 0.0907186 0.13913828 -0.060836 -0.078726284 0.018249685 -0.04139361 -0.031926032

lstm.weight_hh_l0_reverse f4 [256, 64]
00000000: 92a1 6bbd 66c6 853d 8e16 113c 7579 02be
00000010: 8a66 ba3c 6845 b23c 9c84 a7bd 2708 71bd
00000020: 5e0f 82bd 27e9 0dbe 0936 233d 7550 71bc
00000030: 3778 ac3d 418e 3d3d 8a9c 17be 7089 993d
00000040: 5c41 e43c 6318 703b c85a ef3c c135 013d
00000050: ffeb 4cbd ffac 99bd 5689 2bbd 604d ce3c
00000060: 8179 f9bc 529b f5bc 3397 91bc 41fb 74bc
00000070: ed6a e73d 5b8d 413b b87c a5bd 4221 c0bd
00000080: fec9 bebd 2d2c 40bd 6c2e 063e 24cf 8f3c
00000090: c9ca 623d 04e7 8dbc 2331 9c3d e07f 51bd
000000a0: 43d4 62bd 2cec 9ebd 2de0 e3bc 951d 89bd
000000b0: 6154 ac3c 8ae2 db3b 84b4 b13d eef8 31bd
000000c0: 1275 f13c f2ce 8c3b 767d c1bd 30ac 3c3c
000000d0: 4627 88bd 0465 f93c 2641 103d 0869 113d
000000e0: 7f5e a1bd 5fc4 eabc f77e e8bd 8570 d1bc
000000f0: 5904 89bd 8dcf 00be de92 5c3c 7050 a33c
00000100: 82d3 38be 2fba f9bd 5873 f8bd de0d 25bd
00000110: 1dc5 f3bd 8270 b43c 6845 163d 744f 98bc
00000120: c46c a43c 1816 3b3d be29 5bbd 114b 71bd
00000130: 9f0a a8bc 0b50 083d f750 95bc 9285 4c3c
00000140: 8c88 b53c fb2c 97bb bc1f aebd 7b74 ab3c
00000150: d21e 03be 7d03 58bd 71c7 32bd 334a 303d
00000160: 0a9e 033c 003f cebd 144a 10be aa66 1e3d
00000170: dbcf 153d 28a1 29bd 1abe 4dbc af4a cebb
00000180: 97ba 973d 3ae5 2b3e 5a14 8bbb 6bdb 92bd
00000190: 1ea8 073e 3ec7 a63d 5352 4c3d ffcf 473c
000001a0: c691 dabd 5d3c 01be 7971 afbc 9d26 e8bc
000001b0: 7a21 adbb 0100 993d 254b 8e3d e26e adbd
000001c0: f037 03be e220 323d f3e5 babc 47f7 c93d
000001d0: be5a 12bd bf22 e0bc ffa5 bebd 0357 d23a
000001e0: 4241 1cbd cdd5 a03d 3fdf 03be fa47 033c
000001f0: d7d6 20bd dc09 dfbc 9f27 0bbd f2d4 f8bd
00000200: 77fc 69bc 3ade fe3d 4c2b 11bc 76a3 f03c
00000210: c502 813d 7c1e 3abe 4ac4 413d 6aa8 b93a
00000220: 8496 773d 169a f13d b8fa 93bd 0ff2 86bd
00000230: e838 d5bd 70d5 073d 854b 66bb 1526 8fbc
00000240: 5a05 a9bd ba5a 4d3c 4a85 d4bd f71e 96bd
00000250: 99b1 22bc 2fae 12bc 96b0 96bd ac1a 7cbd
00000260: 7b9d 2ebd cbca 8ebd 9fbb 1fbd 3432 90bc
00000270: 47ef d3bd 8cfb e2bb 3bcc fd3d 9237 e13b
00000280: 1f20 553d 5215 fd3c 4145 393e 0990 3c3d
00000290: ca7c 4bbd 73dd 07bd 441d b1bd 2a7e 8d3c
000002a0: 776e 6f3c 5ff1 ea3b 2fea 343d 61f6 6ebd
000002b0: b7cc 423a e4ce 12be 92d4 7a3c c5a9 dbbd
000002c0: 96d6 113e cf90 883c 64f2 603c c99a e73b
000002d0: d326 893c 6046 be3d 5ffc a13c f2f6 9dbd
000002e0: 0937 cbbd 65a8 2dbd 08ac b8bd e282 2dbd
000002f0: e939 9ebd 0af3 873b ed7d 40bc ceec fcbb
00000300: d0e1 85bd c958 04bd a159 b5bc 4183 0cbe
00000310: 79da 773d aff8 59bc 4ab0 913b 43b7 04bd
00000320: f42e 3bbd 8f97 bcbc 7fc7 273d 0ea1 2fbb
00000330: 2f41 b23d 0f49 be3d 17ec cf3c 9996 10be
00000340: 9197 f63c 8baf 943c f0b2 53bc 756d 1dba
00000350: bf0e 9e3d 38e3 f43c 428a 933b 4f7e f13c
00000360: 7fd0 243d 3296 2e3d bd62 88bd 2e1e eebb
00000370: 7c07 12be c666 843d 0d5f 1ebe cb79 68bd
00000380: 94b3 c33d 468c e6bc b3cc 06be 257d b03d
00000390: 14ac 253d 6164 d0bc 6fb3 343d a812 0a3d
000003a0: 5d66 ca3c dfc8 05bd 3708 2b3d b220 de3d
000003b0: b7dd 20bd fb92 1b3d f72b 0abd e072 743b
000003c0: 1b3f 523c adba 363d 20af 63bd ba6b 0c3c
000003d0: b8e8 abbd 96f1 043e 0760 a3bd cbb1 6ebd
000003e0: d392 ebbc 584e cbbc 8013 d63b f7e3 dabc
000003f0: d853 adbd aee1 bebd 31ad 633d 9b79 d1bd
-0.057527132 0.06531982 0.008855475 -0.12741645 0.022753973 0.021761611 -0.0817959 -0.058845665
-0.06350587 -0.13858472 0.039846454 -0.014728655 0.08421367 0.046278242 -0.14805809 0.07496917
0.027863197 0.003663563 0.029218093 0.031545404 -0.05002975 -0.075036995 -0.04187902 0.02518338
-0.030453445 -0.029981289 -0.017772293 -0.014952482 0.11299691 0.0029533717 -0.08080429 -0.093813434
-0.09315871 -0.04691713 0.13103646 0.017554827 0.055369172 -0.01732207 0.076265596 -0.05114734
-0.05537821 -0.0775989 -0.027816856 -0.066950954 0.021036329 0.006710355 0.08677009 -0.04345029
0.029474769 0.0042971307 -0.09447758 0.011515662 -0.06648116 0.030443676 0.03521838 0.035500556
-0.07879352 -0.02865809 -0.113523416 -0.025566349 -0.066902824 -0.12579174 0.01346275 0.019935817
-0.18049434 -0.12193715 -0.12131375 -0.040296428 -0.11902831 0.022026304 0.036687285 -0.018592574
0.020071395 0.045675367 -0.053506605 -0.05890948 -0.020512877 0.03327946 -0.018227084 0.0124830175
0.022159837 -0.0046135164 -0.085021466 0.020929566 -0.12804726 -0.0527377 -0.043647233 0.043039512
0.008033285 -0.1007061 -0.14090759 0.038672127 0.03657518 -0.041413456 -0.012557531 -0.006295524
0.07408636 0.16786662 -0.0042443695 -0.07170757 0.13247725 0.08143471 0.049883198 0.012195586
-0.10672335 -0.12620683 -0.021416413 -0.028338725 -0.0052835317 0.07470704 0.069479264 -0.08468415
-0.12814307 0.04348839 -0.022814726 0.098616175 -0.03573107 -0.027360318 -0.09309005 0.001604766
-0.038148172 0.07853279 -0.1287813 0.008012766 -0.039267387 -0.027226381 -0.033973332 -0.12149991
-0.014281384 0.1244473 -0.00886042 0.02937482 0.06299356 -0.18175691 0.047306336 0.0014164571
0.060446277 0.11796968 -0.07225555 -0.06589138 -0.10411245 0.033162534 -0.0035140228 -0.017474214
-0.08252974 0.012533838 -0.10376985 -0.07330125 -0.009930038 -0.008952661 -0.073579 -0.061548874
-0.042630654 -0.069722734 -0.03899729 -0.017602064 -0.10348373 -0.0069269594 0.123924695 0.0068730796
0.052032586 0.030893955 0.18092825 0.0460358 -0.049679555 -0.033170175 -0.0864816 0.017272074
0.014613739 0.007169887 0.044168647 -0.058340434 0.00074310176 -0.14336735 0.01530947 -0.1072574
0.14242014 0.016670613 0.013729665 0.0070680124 0.016742146 0.09290767 0.01977366 -0.07713117
-0.099226065 -0.04239692 -0.09017187 -0.042361148 -0.07725889 0.0041488456 -0.011748773 -0.007718659
-0.06537211 -0.032311235 -0.022137465 -0.13721944 0.060511086 -0.01330392 0.004446064 -0.032401334
-0.045699075 -0.023021488 0.04096174 -0.0026798877 0.08703839 0.092912786 0.025381131 -0.14119948
0.03010157 0.018150112 -0.01292108 -0.0006005385 0.07717656 0.029893503 0.0045025656 0.029479174
0.0402379 0.042623706 -0.06659458 -0.0072667813 -0.14260668 0.06464915 -0.15465946 -0.056756776
0.09555736 -0.02814306 -0.13164024 0.086176194 0.04044731 -0.02543849 0.044116434 0.0337092
0.024707014 -0.03266227 0.04175588 0.1084608 -0.039273944 0.03798197 -0.033733334 0.0037299916
0.012832428 0.04461162 -0.055586934 0.008570606 -0.08393997 0.12982783 -0.079773 -0.058275025
-0.028756535 -0.02481763 0.0065330863 -0.02672003 -0.084632576 -0.09320389 0.05558509 -0.102282725
