outputs/lstm_FD001_20251204_080016/lstm_final.pt (torch, 751778 bytes, 30 tensors)

input_proj.weight f4 [64, 14]
0	0xbe7405dc	-0.2383036
1	0x3d415b28	0.047206074
2	0xbd1faba0	-0.038982034
3	0xbdbec8a1	-0.09315611
4	0xbd0642b3	-0.032778453
5	0xbe6ed0ee	-0.23321888
6	0x3e2192c0	0.15778637
7	0xbda8bbbf	-0.08238935
8	0x3d9d6c13	0.07686629
9	0xbe8647d7	-0.26226684
10	0xbe7ed763	-0.24886851
11	0xbe73041a	-0.23732033
12	0x3dcf6730	0.10127103
13	0xbe2e68db	-0.17032187
14	0x3e34df7b	0.17663376
15	0x3e011ef0	0.12609458
16	0x3c9cd90f	0.01914647
17	0x3e7e0e91	0.24810244
18	0xbca08194	-0.019593038
19	0x3e3b28bb	0.18277256
20	0x3e762e84	0.24041182
21	0x3d60d269	0.054888163
22	0x3e4d5c92	0.20054844
23	0xbe23f54e	-0.16011545
24	0xbc590ba9	-0.013247409
25	0x3e66fcbc	0.22557348
26	0xbd0c3fe7	-0.03424063
27	0x3e77ea0d	0.24210377
28	0x3d3803c1	0.044925455
29	0x3d2041b5	0.039125163
30	0x3d3320b1	0.04373235
31	0x3c83534d	0.016030932
32	0x3d187c4b	0.03722791
33	0x3cb33ce6	0.021879625
34	0xbe8d73dd	-0.2762746
35	0x3e6d3aa9	0.23166908
36	0x3e4577cb	0.19283979
37	0xbe652c1e	-0.2238011
38	0x3e0759f0	0.13217902
39	0x3e688cd3	0.2270997
40	0xb983f8ab	-0.0002517154
41	0xbd779af7	-0.06045052
42	0xbe3ec58f	-0.1863005
43	0xbdbf4e9c	-0.093411654
44	0x3d0cd649	0.034384046
45	0x3e45f708	0.19332516
46	0x3c7e9eef	0.015540822
47	0x3d65c954	0.056100205
48	0xbe49213c	-0.19641584
49	0x3e56b4cf	0.2096741
50	0x3d8a5116	0.06753747
51	0x3d013b4d	0.031550694
52	0xbe646e49	-0.22307695
53	0x3e0dabab	0.13835017
54	0x3e883b13	0.2660757
55	0x3d7685af	0.060186084
56	0xbe6db46c	-0.23213357
57	0x3e6fa990	0.23404527
58	0x3e11ebc6	0.14250097
59	0x3e1c9b78	0.15293682
60	0x3c349755	0.0110224085
61	0xbe1af7c0	-0.15133572
62	0x3da7d5e9	0.08195097
63	0x3c86f0d1	0.016472252
64	0xbbda25b1	-0.006657325
65	0x3e4f308d	0.20233364
66	0x3d477057	0.04869112
67	0xbe2fd278	-0.17170131
68	0x3c3397c8	0.01096148
69	0x3e65ba65	0.22434385
70	0xbe33235d	-0.17493959
71	0x3d8e822d	0.06958423
72	0xbe67a880	-0.22622871
73	0x3e14ba76	0.14524254
74	0xbdf49d2e	-0.11944042
75	0x3d08cca8	0.0333983
76	0xbe097bbe	-0.1342611
77	0xbe44f312	-0.19233349
78	0x3da0d56b	0.07853206
79	0x3e83659f	0.25663468
80	0xbde047c8	-0.10951191
81	0xbe78676d	-0.24258204
82	0x3d7384d3	0.059452843
83	0xbb4ec164	-0.0031548375
84	0x3e2559de	0.16147563
85	0x3e132563	0.1436973
86	0x3d3bfe31	0.045896713
87	0xbe068da5	-0.1313997
88	0xbe20d66f	-0.157068
89	0xbdd63453	-0.10459199
90	0xbd33468a	-0.043768443
91	0x3e44093e	0.1914415
92	0x3e227545	0.15865047
93	0x3d3e6b27	0.046488907
94	0x3db12506	0.0864964
95	0x3e36c20c	0.1784746
96	0x3dba1390	0.090857625
97	0x3d999b58	0.075003326
98	0x3dd81891	0.10551561
99	0xbd1773b8	-0.036975592
100	0x3e6048e0	0.219028
101	0xbe16a296	-0.14710459
102	0x3d3f0ffc	0.046646103
103	0x3bb84798	0.005623769
104	0x3e4bb7ca	0.19894329
105	0x3d9e3392	0.0772468
106	0xbdbc9332	-0.09207763
107	0xbc6f3c0b	-0.014601718
108	0xbe1093e3	-0.14118914
109	0xbe3624f3	-0.17787533
110	0x3d0f708a	0.035019435
111	0xbe3322fd	-0.17493816
112	0x3e960d3f	0.2930698
113	0xbe44031e	-0.19141814
114	0xbcf787a7	-0.030216051
115	0xbcb6718b	-0.022270938
116	0x3e5d217a	0.21594802
117	0xbe097b98	-0.13426054
118	0xbe3a647f	-0.18202399
119	0x3d302331	0.04300231
120	0xbda7b5e9	-0.081889935
121	0xbe61342c	-0.21992558
122	0xbda706c1	-0.08155585
123	0xbda9e638	-0.08295864
124	0x3dc02d43	0.09383633
125	0x3e071151	0.131902
126	0x3e44a09f	0.19201897
127	0x3e421558	0.18953454
128	0x3e396197	0.18103634
129	0xbde2b6ec	-0.11070046
130	0x3e173f43	0.14770226
131	0xbd1a8a3b	-0.037729483
132	0x3cb6c34d	0.022309924
133	0x3d2ebb2a	0.042658962
134	0xbe230faa	-0.15923944
135	0x3d40854c	0.04700212
136	0xbe08c4e7	-0.13356362
137	0xbb886111	-0.004161962
138	0xbddabe9b	-0.10680886
139	0xbe5eb121	-0.21747257
140	0xbe82d4e4	-0.25553048
141	0x3d1d6030	0.03842181
142	0xbe53d802	-0.20687869
143	0x3e3fe17c	0.18738359
144	0xbd0c2486	-0.03421452
145	0xbe6b4119	-0.22974052
146	0xbe480899	-0.1953453
147	0x3e6f55dc	0.23372597
148	0xbe6332f3	-0.22187404
149	0x3dc1ed6a	0.09469111
150	0x3db50a65	0.08839873
151	0x3d21bc9c	0.039486513
152	0xbe1e4778	-0.1545695
153	0x3e435e73	0.19078998
154	0x3e2b44a6	0.16725406
155	0x3e33ee79	0.17571439
156	0xbd78946b	-0.060688417
157	0xbe782458	-0.24232614
158	0xbdd70464	-0.10498884
159	0xbd70dee0	-0.0588063
160	0xbe08796d	-0.1332757
161	0x3e4b3cec	0.19847459
162	0xbe8244a2	-0.25442988
163	0xbe454c99	-0.19267501
164	0x3e45aa1d	0.19303174
165	0xbe5df1da	-0.2167429
166	0x3ddabc59	0.10680456
167	0x3e318332	0.17335203
168	0x3d924f32	0.071440116
169	0xbdcccc39	-0.0999989
170	0x3db55de8	0.08855802
171	0xbcb3d262	-0.021950904
172	0x3ddd6653	0.108105324
173	0x3dcf4cfd	0.10122106
174	0xbe802f4c	-0.25036085
175	0xbe205fa2	-0.15661481
176	0xbe2572f9	-0.1615714
177	0xbe685f20	-0.22692537
178	0x3e1362d2	0.14393166
179	0x3db930f7	0.090425424
180	0xbe2610b5	-0.1621731
181	0xbe8c404d	-0.27392808
182	0xbe84f1a8	-0.2596562
183	0xbd2cd6bc	-0.042196974
184	0xbd47b09a	-0.048752405
185	0xbe13d9f9	-0.14438619
186	0x3e91251f	0.28348634
187	0xbe028357	-0.12745415
188	0x3e921afb	0.2853621
189	0xbddcbeb2	-0.1077856
190	0xbe1e8c15	-0.15483125
191	0x3d8d3e63	0.06896665
192	0x3d3fc197	0.04681548
193	0xbcc01383	-0.023446804
194	0xbb57bdad	-0.0032919452
195	0xbe8608cf	-0.26178595
196	0xbe6cfd96	-0.2314361
197	0x3d8ad7d8	0.0677945
198	0x3e11e9d8	0.1424936
199	0xbd5c6104	-0.05380346
200	0x3e508579	0.20363416
201	0x3c1f3a6a	0.009718517
202	0xbdbcce32	-0.09219016
203	0x3e57211a	0.21008721
204	0xbe531f95	-0.20617516
205	0xbe8b4432	-0.27200466
206	0xbd8a59f8	-0.067554414
207	0xbe8dc3da	-0.27688485
208	0x3e683063	0.22674708
209	0x3e14bac0	0.14524364
210	0xbe2387ca	-0.15969768
211	0x3d68c2ad	0.056826282
212	0x3e5f572f	0.21810602
213	0x3ca50d59	0.020147966
214	0x3e8a851c	0.2705468
215	0x3d6f7876	0.05846449
216	0xbe43c016	-0.19116244
217	0xbd361d96	-0.04446181
218	0x3e7dee98	0.24798048
219	0xbe730529	-0.23732437
220	0x3d2ac718	0.041693777
221	0xbdf781d3	-0.12085309
222	0xbe2203ee	-0.15821812
223	0xbe8a08ea	-0.26959926
224	0xbe296307	-0.16541682
225	0xbe902521	-0.28153327
226	0xbe7254ca	-0.23665157
227	0x3e767fc7	0.2407218
228	0x3db8fea2	0.09032942
229	0x3e48b04a	0.19598499
230	0xbe47360e	-0.19454214
231	0x3e04ad6c	0.1295678
232	0xbd14c7b1	-0.036323253
233	0xbdbe7fd2	-0.093017235
234	0xbe6408fd	-0.22269054
235	0x3e2838c6	0.16427907
236	0x3c957d09	0.018248098
237	0x3cbfb955	0.023403803
238	0xbe30a9ca	-0.1725227
239	0x3e3baabc	0.18326849
240	0x3c00a72d	0.007852358
241	0xbe2b225d	-0.16712327
242	0x3d88ff63	0.06689336
243	0xbe3c4097	-0.18384014
244	0x3e7f3cbd	0.24925514
245	0x3e21c286	0.15796861
246	0x3e746a0d	0.2386858
247	0x3c495982	0.012289407
248	0x3e8f8e0c	0.2803806
249	0x3e5d9440	0.21638584
250	0x3e7b6dd5	0.24553616
251	0x3dc44292	0.0958301
252	0xbe6a0551	-0.2285359
253	0xbe2ba9fd	-0.16764064
254	0x3e327f55	0.17431386
255	0xbe1575a9	-0.14595665

input_proj.bias f4 [64]
0	0x3cbd4d36	0.023108106
1	0x3c41afa3	0.01182166
2	0xbcc80100	-0.02441454
3	0x3a7d9f60	0.0009674933
4	0x3b8839c7	0.004157278
5	0x3b88c240	0.004173547
6	0xbbe5c74d	-0.007012284
7	0x3c1980bd	0.0093690725
8	0x3d107a63	0.035272967
9	0x3c90f74f	0.01769605
10	0x3c936c9d	0.017996127
11	0xbbbbd896	-0.005732606
12	0xbccb5895	-0.024822513
13	0x3b841e4f	0.0040319334
14	0x3ccd7cd6	0.02508394
15	0x3c2895a3	0.010289582
16	0x3cc7ca69	0.024388509
17	0xbccc47d1	-0.024936588
18	0xbb86d3af	-0.00411459
19	0xbd03df65	-0.032195468
20	0x3ca512d3	0.020150578
21	0x3cc12376	0.02357648
22	0xbc6348db	-0.013872351
23	0xbcf74afe	-0.030187126
24	0xbd3731da	-0.044725277
25	0xbcad13db	-0.021127632
26	0xbc468ef8	-0.012119047
27	0xbc541008	-0.012943275
28	0x3d193f34	0.03741379
29	0x3aaa51ef	0.0012994389
30	0x3c8aec09	0.016958253
31	0x3cd94efc	0.02652692
32	0xbc3d2128	-0.01154355
33	0xbbde871f	-0.00679101
34	0xbd0d6087	-0.034515884
35	0x3cecfbf5	0.028928736
36	0xbca60de6	-0.0202703
37	0xbccb210b	-0.02479603
38	0xbb8299e1	-0.003985629
39	0xbca7a627	-0.02046497
40	0x3c54c158	0.01298555
41	0xbcd45ed1	-0.025924118
42	0x3ce91366	0.028451633
43	0xbcf4c4c6	-0.029878985
44	0x3c90ab30	0.017659754
45	0x3d038e50	0.03211814
46	0x3d0ff4f7	0.035145726
47	0x3d05df67	0.032683756
48	0x3c94ac12	0.018148456
49	0xbc213de3	-0.009841415
50	0xbcecbfab	-0.028899988
51	0xbc3602bd	-0.011109051
52	0xbcc7063c	-0.024294965
53	0xbcf0d7d9	-0.0293998
54	0x3c767678	0.015042894
55	0xbc9f7720	-0.019465983
56	0x3d0d454b	0.03448991
57	0x3cad43cf	0.021150498
58	0xbcdb9cbd	-0.026808137
59	0x3cfa7c19	0.030576752
60	0xbcec5f74	-0.02885411
61	0xbc03a53b	-0.0080349995
62	0xbc7c1c02	-0.015387537
63	0xbc829b54	-0.015943207

input_norm.weight f4 [64]
0	0x3f8090cc	1.0044188
1	0x3f805b09	1.0027782
2	0x3f7a1073	0.9768135
3	0x3f8084d3	1.0040535
4	0x3f7abbe8	0.9794297
5	0x3f7d4a5d	0.98941594
6	0x3f795d68	0.9740815
7	0x3f7febdc	0.9996927
8	0x3f7b56ea	0.98179495
9	0x3f7d626a	0.9897829
10	0x3f80be89	1.0058147
11	0x3f813aed	1.0096108
12	0x3f81ff80	1.0156097
13	0x3f81aa46	1.0130088
14	0x3f829eb4	1.0204682
15	0x3f810e5d	1.0082508
16	0x3f80c28c	1.0059371
17	0x3f80235c	1.0010791
18	0x3f7986d9	0.97471386
19	0x3f811c1a	1.0086701
20	0x3f824d7f	1.01799
21	0x3f7c9151	0.98659235
22	0x3f80f810	1.0075703
23	0x3f811a78	1.0086203
24	0x3f80cfa5	1.0063368
25	0x3f7cc346	0.98735464
26	0x3f7df57b	0.992027
27	0x3f7f0480	0.9961624
28	0x3f7b924c	0.98270106
29	0x3f80945c	1.0045276
30	0x3f7e9743	0.9944956
31	0x3f8390a4	1.0278516
32	0x3f81dbc6	1.0145195
33	0x3f848826	1.0354049
34	0x3f7c399f	0.9852542
35	0x3f81903c	1.0122142
36	0x3f7fe552	0.9995929
37	0x3f80020a	1.0000622
38	0x3f7ea5c5	0.99471694
39	0x3f7c2318	0.9849105
40	0x3f7fabf5	0.9987176
41	0x3f7e8fa3	0.9943792
42	0x3f811ba1	1.0086557
43	0x3f80a8da	1.005153
44	0x3f7e0d24	0.992388
45	0x3f80bc2c	1.0057425
46	0x3f8145ec	1.0099463
47	0x3f7c6eac	0.9860637
48	0x3f81d3ee	1.0142801
49	0x3f80f153	1.0073646
50	0x3f80315e	1.0015066
51	0x3f81b4da	1.0133317
52	0x3f80c8bf	1.0061263
53	0x3f8000cb	1.0000242
54	0x3f7ce376	0.9878458
55	0x3f81cd7d	1.0140835
56	0x3f790e69	0.97287613
57	0x3f820fc6	1.0161064
58	0x3f80cea1	1.0063058
59	0x3f7d14bc	0.98859763
60	0x3f7cca54	0.9874623
61	0x3f7e5ab4	0.9935715
62	0x3f7fd604	0.99935937
63	0x3f825fd6	1.0185497

input_norm.bias f4 [64]
0	0x3cbbe46a	0.022936065
1	0x3c3117bc	0.010808881
2	0xbcc8bce1	-0.024504127
3	0x3bca3313	0.0061706393
4	0xbc273528	-0.0102055445
5	0x3b3d8f8d	0.0028924674
6	0xba539430	-0.0008071093
7	0x3c1252a6	0.008930838
8	0x3d1a7df6	0.037717782
9	0x3c8bbf2f	0.017058937
10	0x3c88ac03	0.016683584
11	0xbc1585fe	-0.0091261845
12	0xbcd1ae3c	-0.025595777
13	0x3b1d32de	0.0023986618
14	0x3cde40d9	0.027130531
15	0x3c324cf8	0.010882609
16	0x3cf0fb91	0.029416831
17	0xbcd02dfa	-0.025412548
18	0xbb965127	-0.004587311
19	0xbd0d134a	-0.034442224
20	0x3c9d1816	0.019176524
21	0x3cbfee1b	0.023428967
22	0xbc6cf757	-0.014463267
23	0xbd01ff94	-0.03173788
24	0xbd1721bf	-0.036897417
25	0xbcbed69b	-0.023295691
26	0xbc6909ff	-0.014223575
27	0xbc679b7b	-0.0141361905
28	0x3d0f5db1	0.03500146
29	0xb92a1b30	-0.00016222592
30	0x3c7d41cb	0.015457581
31	0x3cd5db9d	0.026105696
32	0xbc049eab	-0.00809447
33	0xbc169b20	-0.009192258
34	0xbd1e501a	-0.03865061
35	0x3cfc7fac	0.030822597
36	0xbc97b7a1	-0.018520178
37	0xbcd0f9e7	-0.025509788
38	0xbbe0e4ef	-0.0068632285
39	0xbca0d13c	-0.01963102
40	0x3c5b129b	0.013371135
41	0xbcde6c12	-0.027151141
42	0x3d01eb2c	0.031718418
43	0xbcf454cc	-0.02982559
44	0x3cd09de7	0.025465919
45	0x3d0a030f	0.033694323
46	0x3d2345d1	0.039861504
47	0x3d03cffa	0.032180764
48	0x3c63a259	0.013893687
49	0xbc40d36f	-0.01176916
50	0xbcfeef28	-0.031119898
51	0xbc52335d	-0.012829629
52	0xbcca39f0	-0.02468583
53	0xbd0a6adb	-0.03379331
54	0x3c09f7b9	0.008420878
55	0xbc041dff	-0.008063792
56	0x3d15d61b	0.03658114
57	0x3caf2151	0.021378191
58	0xbce0e044	-0.027450688
59	0x3d01b0ce	0.031662755
60	0xbcee3c2a	-0.029081423
61	0xbc355b7a	-0.011069173
62	0xbc7b0e25	-0.015323197
63	0xbc8e5ea2	-0.017379109

lstm.weight_ih_l0 f4 [256, 64]
0	0xbd57243d	-0.052524794
1	0xbb07d731	-0.002072763
2	0x3cde9f88	0.02717568
3	0xbd348888	-0.04407552
4	0x3d8d16bb	0.06889101
5	0x3d881021	0.06643701
6	0xbdbe44d7	-0.09290474
7	0xbe25709b	-0.16156237
8	0xbd214ac0	-0.039377928
9	0xbcee717f	-0.029106854
10	0xbd732b98	-0.059367746
11	0xbd88f74e	-0.066877946
12	0xbe1128ba	-0.14175692
13	0x3ccd8178	0.02508615
14	0xbda4731a	-0.080297664
15	0x3cc8a6fc	0.024493687
16	0xbdb07361	-0.08615757
17	0x3e049074	0.1294573
18	0x3d8a48e4	0.06752184
19	0x3d466106	0.048432373
20	0xbe05df0e	-0.1307337
21	0x3e29103a	0.16510096
22	0xbe280992	-0.16409901
23	0xbd41f7ea	-0.04735557
24	0xbc6bdb74	-0.014395583
25	0x3dd36ab5	0.10323087
26	0x3df62f4f	0.12020742
27	0x3da96bfa	0.08272548
28	0x3cff0130	0.031128496
29	0xbe16b7a1	-0.14718486
30	0xbe2b7aa8	-0.16746008
31	0xbc9502a2	-0.018189732
32	0xbd45527f	-0.048174378
33	0x3e110842	0.14163306
34	0x3dad654e	0.08466588
35	0xbdc9ce83	-0.09853842
36	0x3d84d142	0.06485225
37	0x3e05d5ba	0.13069811
38	0x3e1ef512	0.15523174
39	0x3dbc186f	0.09184348
40	0xbd1dee8f	-0.038557585
41	0xbdb4dd4f	-0.08831274
42	0x3dae7b35	0.085195936
43	0x3d831c4d	0.06401882
44	0x3d893b32	0.06700744
45	0x3c90de26	0.017684054
46	0x3e042268	0.1290375
47	0x3d7cb397	0.061694708
48	0x3dc90ddc	0.098170966
49	0xbe149c37	-0.14512716
50	0x3bf8c662	0.0075920084
51	0xbdbe3168	-0.09286767
52	0xbdfffb4a	-0.124991015
53	0x3bdc7dd1	0.0067288657
54	0xbd81ce56	-0.063381836
55	0xbe23cb9b	-0.15995638
56	0x3dbd5086	0.09243874
57	0xbd475276	-0.048662625
58	0xbdf40d41	-0.119165905
59	0xbc947da9	-0.018126326
60	0xbce07cb9	-0.027403222
61	0xbd465881	-0.048424248
62	0xbcf21ada	-0.02955382
63	0x3db47dd5	0.08813063
64	0x3d9b36ee	0.075788364
65	0x3ced8952	0.028996143
66	0x3d15c2ca	0.03656272
67	0xbd05ae7e	-0.03263711
68	0x3decc73a	0.11561437
69	0x3dc26a38	0.09492916
70	0x3e0fc21b	0.14038889
71	0x3dd517a6	0.10404901
72	0xbd9c8f38	-0.07644504
73	0x3d41cd1f	0.04731476
74	0xbd1e6cf7	-0.038678136
75	0xbc8ce417	-0.017198605
76	0x3defc7b3	0.117080115
77	0xbd1a93a4	-0.037738457
78	0x3de1b461	0.11020733
79	0xbd7875a0	-0.06065905
80	0xbd9021d2	-0.07037701
81	0xbd06aa02	-0.032876976
82	0x3c2ba447	0.0104761785
83	0xbd25ccda	-0.040478565
84	0xbab8d997	-0.0014102933
85	0xbcfee9ff	-0.031117437
86	0x3db25685	0.087079085
87	0x3d95c9d5	0.07313887
88	0x3dcbcafb	0.09950825
89	0x3d367a49	0.044550214
90	0x3dae1321	0.08499742
91	0x3cb89f90	0.022537023
92	0xbddbb6db	-0.10728236
93	0xbce5bfa9	-0.028045492
94	0x3d37acb1	0.044842426
95	0xbdd550c2	-0.10415794
96	0x3df36e71	0.118862994
97	0xbdb6a8a9	-0.08918888
98	0xbbaa6c2e	-0.0052008843
99	0xbd821a75	-0.063527025
100	0xbbc2f082	-0.005949081
101	0xbd232370	-0.039828718
102	0x3d9b4b50	0.07582724
103	0x3d8c2bfb	0.06844326
104	0xbd9eaeac	-0.0774816
105	0xbd62a7f1	-0.055335943
106	0xbdabd86d	-0.08390889
107	0x3d4ba5b0	0.04971856
108	0x3c91ab88	0.017781988
109	0x3cbe3554	0.023218788
110	0x3d3750cd	0.044754792
111	0x3d324fbb	0.04353307
112	0x3af96709	0.0019027899
113	0xbd9f37d9	-0.07774324
114	0xbd06a690	-0.03287369
115	0xbcecb38a	-0.028894205
116	0xbe13ecda	-0.1444582
117	0xbcf05158	-0.029335663
118	0x3dce1882	0.10063268
119	0x3d8e1edb	0.06939479
120	0xbdf83c58	-0.12120885
121	0x3cb31b66	0.02186365
122	0x3dae2052	0.08502258
123	0xbdd8d42f	-0.10587346
124	0xbc236c67	-0.009974576
125	0xbdb4d246	-0.08829169
126	0x3c80e53d	0.01573431
127	0x3d43dbcd	0.04781704
128	0xbcab2d19	-0.020895528
129	0x3d84637c	0.06464288
130	0x3c588fb1	0.013217852
131	0xbda7d0d5	-0.081941284
132	0x3dbccec6	0.092191264
133	0x3d0d7962	0.034539588
134	0xbb698ab7	-0.003563566
135	0x3df2539b	0.11832353
136	0xbca95eaa	-0.020675022
137	0x3d5b8556	0.053593956
138	0xbd1a7e49	-0.03771809
139	0xbd12ad94	-0.03581007
140	0xbd0883f9	-0.033328984
141	0x3e0e2b8f	0.13883804
142	0x389125f8	6.921211e-05
143	0xbccb1486	-0.02479006
144	0xbd270e0a	-0.040784873
145	0x3dacf512	0.08445181
146	0x3ddf7041	0.109100826
147	0x3dd6f0da	0.104951575
148	0x3da547f2	0.08070363
149	0xbd97251d	-0.07380126
150	0x3e153afe	0.14573285
151	0x3e11db71	0.14243867
152	0xbda30ddc	-0.07961628
153	0x3de4ea50	0.11177504
154	0xbddf0884	-0.10890296
155	0xbd7d63ee	-0.06186288
156	0xbcefc19a	-0.029267121
157	0x3df72c49	0.120689936
158	0x3b7cd2d1	0.0038577805
159	0x3d9ed284	0.077549964
160	0xbd685b10	-0.05672747
161	0xbd3b1735	-0.04567643
162	0xbd06ebb6	-0.032939635
163	0xbc546709	-0.012964019
164	0x3bceabc5	0.0063070976
165	0x3da09bc8	0.07842213
166	0xbdcd860d	-0.10035334
167	0xbdfa3c50	-0.12218535
168	0xbdf6fd48	-0.12060028
169	0x3b50b2d2	0.0031844866
170	0xbe0c4c6c	-0.13701028
171	0x3dd8d32b	0.10587152
172	0xbcf8af30	-0.030356973
173	0xbd51f1b2	-0.05125589
174	0x3dbea5d6	0.093089744
175	0x3cda2f48	0.026633874
176	0xbdb350e2	-0.087556615
177	0xbd5377b6	-0.051627837
178	0x3d9bff75	0.07617084
179	0xbd17b97f	-0.037042137
180	0x3df26376	0.11835377
181	0xbdc3371e	-0.09531997
182	0x3d2b9807	0.04189303
183	0xbbf3d33f	-0.007440954
184	0x3d20b962	0.039239295
185	0xbc981274	-0.018563487
186	0x3d6ce01b	0.05783091
187	0xbddaeaa9	-0.10689289
188	0x3db6dbf4	0.089286715
189	0xbc83bc39	-0.016080962
190	0xbdd68534	-0.10474625
191	0x3ded8799	0.11598129
192	0xbd35c6cc	-0.04437904
193	0xbd2cbba0	-0.04217112
194	0x3d6e9f46	0.058257364
195	0xbdafaca3	-0.0857785
196	0x3d121b60	0.035670638
197	0xbe02c0b3	-0.12768821
198	0xbda56afa	-0.08077045
199	0xbd2a279a	-0.041541673
200	0x3d80e5bd	0.06293819
201	0xbdde008a	-0.108399466
202	0x3d845992	0.06462397
203	0x3d66257d	0.056188095
204	0x3e1b0d2e	0.15141746
205	0xbcf58e7d	-0.02997517
206	0xbddec0b5	-0.108766
207	0x3e0bd9d5	0.13657315
208	0xbdbbf0b4	-0.0917677
209	0x3df29c3d	0.11846206
210	0x3d729663	0.05922545
211	0x3cef4ed2	0.02921239
212	0x3dc9c6a7	0.09852343
213	0x3d8f079c	0.06983873
214	0xbda900f7	-0.08252137
215	0x39fe2a26	0.00048478058
216	0xbe09bfa1	-0.13452007
217	0xbdf50593	-0.11963954
218	0x3dd42f33	0.10360565
219	0x3d30f1d3	0.04319937
220	0x3cf37de3	0.029723113
221	0xbc2fb3aa	-0.010723988
222	0x3d736c64	0.05942954
223	0x3dbb775d	0.09153626
224	0x398e96fa	0.00027196837
225	0xbc9e32a9	-0.019311266
226	0xbba202dd	-0.004944189
227	0x3d345376	0.044024907
228	0xbd0f0d3e	-0.034924738
229	0xbda54138	-0.0806908
230	0xbd9b512f	-0.07583844
231	0xbe01c846	-0.12674055
232	0x3defd325	0.117101945
233	0xbd6834f2	-0.056691118
234	0xbd8eeb23	-0.069784425
235	0xbda0e36d	-0.07855878
236	0x3d74cacd	0.05976372
237	0x3cace567	0.021105481
238	0x3c2ff96a	0.010740617
239	0x3c42f805	0.011899953
240	0xbe1d48a6	-0.15359744
241	0xbd9df086	-0.07711892
242	0xbde1b538	-0.11020893
243	0xbdb31c2b	-0.08745607
244	0xbd6aaa40	-0.05729127
245	0x3c0b4b6b	0.008501868
246	0x3a22fdc9	0.00062176265
247	0x3bac031d	0.0052493946
248	0xbc044e62	-0.008075329
249	0xbdc300ac	-0.095216125
250	0x3ca5a09a	0.020218182
251	0xbe1a37fe	-0.15060422
252	0x3db34f9d	0.087554194
253	0x3da2c714	0.079481274
254	0x3d56e1f5	0.052461583
255	0x3ca36c18	0.019949004

lstm.weight_hh_l0 f4 [256, 64]
0	0xbcadfdfb	-0.021239271
1	0xbe41c4ef	-0.1892278
2	0xbb0e4a1f	-0.002171166
3	0xbcb28326	-0.021791052
4	0x3e0d4edf	0.13799618
5	0x3d681509	0.056660686
6	0x3c4c8eea	0.012485245
7	0x3c6dbb6a	0.014510015
8	0x3d361194	0.044450358
9	0x3d5b7748	0.053580552
10	0x3d4e86c3	0.050421488
11	0xbdd59c81	-0.104302414
12	0x3db0965b	0.08622428
13	0xbbf289dc	-0.007401688
14	0x3d42395d	0.047417987
15	0xbdbe900e	-0.0930482
16	0x3d06775b	0.03282867
17	0x3ca95feb	0.02067562
18	0x3c768801	0.015047074
19	0xbdafecb9	-0.08590073
20	0xbc20f753	-0.009824592
21	0xbdac4ac7	-0.084127
22	0x3d2c9671	0.04213566
23	0x3d9f309a	0.07772942
24	0xbcc95959	-0.024578737
25	0x3dadb99c	0.08482668
26	0x3d45157e	0.0481162
27	0xbe025c77	-0.12730585
28	0xbdaeb9f2	-0.0853156
29	0x3d082862	0.033241637
30	0xbd05e364	-0.03268756
31	0xbd7975bc	-0.060903296
32	0xbd3727f7	-0.044715848
33	0xbd8e03d0	-0.06934321
34	0x3d15f0fa	0.036606766
35	0x3c4f160e	0.012639536
36	0xbca6b7ef	-0.020351378
37	0xbe07be69	-0.1325623
38	0x3c8b9b3f	0.0170418
39	0xbe306bbb	-0.17228596
40	0xbd632942	-0.05545927
41	0xbd68810b	-0.05676369
42	0xbce31cad	-0.027723635
43	0x3e0659df	0.1312022
44	0xbddc89d0	-0.10768473
45	0xbd3e3f9a	-0.046447374
46	0xbd8a7d41	-0.067621715
47	0x3cbaa261	0.022782506
48	0xbd4422e9	-0.047884855
49	0x3db30c14	0.08742538
50	0xbd385924	-0.045006886
51	0x3cb9759d	0.02263909
52	0x3c23bd0a	0.009993801
53	0x3da45fd8	0.08026093
54	0xbd0b060b	-0.03394131
55	0x3d092153	0.033479046
56	0x3d5847f6	0.052803002
57	0x3dabc247	0.08386665
58	0xbd03eaaa	-0.032206215
59	0xbcdbb19e	-0.026818093
60	0xbd6c379c	-0.05767022
61	0x3db3b83c	0.08775374
62	0xbdb7870e	-0.089613065
63	0xbca62f28	-0.020286158
64	0x3e1ebbbd	0.15501304
65	0xbd699311	-0.05702502
66	0xbd880e21	-0.0664332
67	0xbc98eb42	-0.018666867
68	0x3d99e7af	0.07514893
69	0x3c688376	0.014191499
70	0xbd288b7a	-0.04114864
71	0xbd405696	-0.046957575
72	0x3dd30de4	0.10305384
73	0x3d816c0f	0.06319439
74	0xbd1eaf9c	-0.038741693
75	0xbd9e83c4	-0.07739976
76	0x3d529c89	0.051418815
77	0x3c6f2232	0.014595555
78	0xbaa56220	-0.0012617745
79	0x3d8ea759	0.06965513
80	0x3dca0450	0.09864104
81	0xbdb8f74c	-0.09031543
82	0x3b0e826f	0.0021745225
83	0x3d99e2f3	0.0751399
84	0xbda70a40	-0.08156252
85	0x3dab8168	0.08374292
86	0xbdbfba35	-0.09361688
87	0x3d083e87	0.033262756
88	0x3d4efbea	0.050533213
89	0x3d34160a	0.04396633
90	0x3c73f62f	0.014890238
91	0x3db6af7b	0.08920189
92	0x3d0e8f90	0.03480488
93	0xbd3b8561	-0.045781497
94	0xbdb71a38	-0.08940548
95	0xbd28b095	-0.041184027
96	0xbd2ac406	-0.04169085
97	0x3d20a99f	0.039224263
98	0xbd0131f1	-0.03154177
99	0xbd1ceb26	-0.038310193
100	0x3d5f524b	0.05452184
101	0xbc3846d1	-0.011247353
102	0x3d3893a7	0.045062687
103	0x3d445218	0.047929853
104	0xbd88150c	-0.066446394
105	0x3cfb719b	0.03069382
106	0x3dea3a4b	0.114369
107	0xbd586225	-0.052827973
108	0x3bbe42d5	0.005806307
109	0x3df5be23	0.11999156
110	0x3d5f7fab	0.054565113
111	0x3c9b4461	0.018953504
112	0x3df2aa49	0.118488856
113	0xbd4208ba	-0.047371604
114	0x3ab8a448	0.0014087046
115	0xbd0b8646	-0.0340636
116	0xbd945c5d	-0.072441794
117	0x3c4edce4	0.012625907
118	0xbdc660e4	-0.09686449
119	0xbc3c57b7	-0.011495522
120	0xbcb80fc0	-0.022468448
121	0xbd7f202b	-0.062286537
122	0xbda85792	-0.08219828
123	0x3d44741e	0.0479623
124	0x3d3db541	0.046315435
125	0x3dd91955	0.10600535
126	0x3d7e34ee	0.062062196
127	0xbd6bf877	-0.05761
128	0x3c84bc9a	0.016203213
129	0x3d0e0ead	0.034681965
130	0x3cab3dfb	0.020903578
131	0x3d777cf6	0.060421906
132	0xbc7442b4	-0.014908481
133	0x3d312e3e	0.04325699
134	0x3cbd2577	0.023089154
135	0xbb8cc58f	-0.0042960118
136	0xbd7aeb3e	-0.0612595
137	0x3db08633	0.086193465
138	0xbd22ecfe	-0.039776795
139	0xbc8a5e75	-0.016890744
140	0xbcef1a64	-0.029187389
141	0x3dbbf86f	0.09178244
142	0xba088e33	-0.00052091776
143	0x3d787e01	0.06066704
144	0x3d241e2a	0.04006783
145	0x3d86f94f	0.065905206
146	0x3d39008d	0.04516654
147	0xbcd0672f	-0.025439827
148	0x3d536fac	0.05162017
149	0x3d0d4f98	0.034499735
150	0x3db5683d	0.088577725
151	0x3da7e92c	0.08198771
152	0xbc75d411	-0.015004174
153	0xbd5f953e	-0.054585688
154	0x3d778158	0.060426086
155	0xbc3d0821	-0.011537583
156	0xbc664a69	-0.014055827
157	0x3da6c6ad	0.08143363
158	0x3d9705a8	0.07374126
159	0xbd875259	-0.066075034
160	0x3d8fc6e4	0.07020357
161	0xbdb7b3af	-0.08969819
162	0x3cb8fc5c	0.022581272
163	0xbc36f0e3	-0.01116583
164	0x3d40de0d	0.047086764
165	0x3cb7b17c	0.022423498
166	0x3a790403	0.0009499194
167	0x3e051a4f	0.12998317
168	0xbd80115b	-0.0625331
169	0xba5460ff	-0.0008101612
170	0x3dad0446	0.08448081
171	0xbc28f833	-0.010313082
172	0xbd35209f	-0.044220563
173	0x3d70fc3d	0.058834303
174	0xbd415e50	-0.047209084
175	0x3a619b64	0.0008606224
176	0xbc19c120	-0.0093844235
177	0xbd87fbd9	-0.06639833
178	0x3c611327	0.013737476
179	0x3dc01ea2	0.09380843
180	0xbdfac01d	-0.12243674
181	0xbb3e62a5	-0.0029050496
182	0xbcd334ce	-0.025782015
183	0x3d83b328	0.06430656
184	0xbd2688f5	-0.040657956
185	0x3d5fc1e4	0.054628268
186	0x3c78ca73	0.015184986
187	0x3d76c738	0.060248584
188	0xbca61dd2	-0.020277891
189	0x3d1cc11b	0.038270097
190	0x3d9f2e65	0.07772521
191	0x3ce59f42	0.028030042
192	0xbd2525b1	-0.04031915
193	0xbd8120c2	-0.06305076
194	0x3c9c4d72	0.019079898
195	0xbaf87d99	-0.001895833
196	0x3cd4cb62	0.025975887
197	0xbe0ece35	-0.13945849
198	0xbbede406	-0.0072598485
199	0xbc9036aa	-0.01760419
200	0xbceb1f71	-0.028701516
201	0xbc0839ec	-0.008314591
202	0x3dbcdee5	0.09222201
203	0x3ccb70dd	0.02483409
204	0x3e2b3515	0.16719468
205	0xbd27efd9	-0.04100022
206	0x3cabc67e	0.020968672
207	0x3cbc9873	0.023021912
208	0xbd2ae35b	-0.04172073
209	0xbbc38e0e	-0.005967862
210	0xbd623bc2	-0.05523277
211	0x3da25c2c	0.07927737
212	0x3c4a06c6	0.0123307165
213	0x3e010565	0.12599714
214	0x3b6c66f8	0.0036072116
215	0x3a17d3ee	0.0005791773
216	0x3d03a626	0.032140873
217	0xbc9ef471	-0.019403668
218	0x3bc23725	0.005926984
219	0xbd886c6f	-0.06661307
220	0xbc9d800d	-0.019226098
221	0x3ca0d058	0.019630596
222	0xbd0f9786	-0.035056613
223	0xbb6337c7	-0.0034670697
224	0x3db8f1b1	0.09030474
225	0x3c5c4122	0.013443263
226	0xbc4a1cf6	-0.012336006
227	0x3d3c4a6b	0.045969408
228	0x3d3d4c8c	0.04621558
229	0x3d718f57	0.05897459
230	0x3cddcb54	0.027074493
231	0x3d1f57aa	0.038901962
232	0x3c9c2be1	0.019063892
233	0x3db61dd2	0.088924065
234	0xbe06fa72	-0.13181475
235	0x3cad1763	0.021129316
236	0x3d490f4a	0.049086846
237	0xbe30ef1c	-0.17278713
238	0x3ce5463c	0.027987592
239	0xbc5ba4b8	-0.013405971
240	0xbd390473	-0.04517026
241	0xbc7eec84	-0.015559319
242	0xbd9047f8	-0.07044977
243	0x3ddc4aeb	0.10756477
244	0x3dc683fd	0.096931435
245	0x3dbd8462	0.09253766
246	0xbbbbcc16	-0.005731116
247	0x3ce9f972	0.028561328
248	0xbd940962	-0.07228352
249	0x3cbf5cc4	0.023359664
250	0xbde81821	-0.11332727
251	0x3d45d2fb	0.04829691
252	0xbdb25c72	-0.08709039
253	0x3c55da88	0.01305259
254	0xbd9f2cdd	-0.07772229
255	0xbb8f4d5c	-0.0043732356

lstm.bias_ih_l0 f4 [256]
0	0x3b9ee6b4	0.0048492793
1	0xbb14b328	-0.0022689793
2	0xbc2dd9a7	-0.010610974
3	0x3a94a2ad	0.0011339985
4	0xbc2df88b	-0.010618339
5	0x3bc504c3	0.0060125305
6	0xbd03c085	-0.032166023
7	0xbbfba190	-0.007679172
8	0xbca96167	-0.020676328
9	0xbc32a502	-0.010903599
10	0x3c234e3f	0.009967386
11	0xbc555a26	-0.013021981
12	0x3c84b9bc	0.016201846
13	0xbb995ddc	-0.0046803784
14	0xbc68d651	-0.014211253
15	0xbc94f534	-0.018183328
16	0xbbf1b0e4	-0.0073758233
17	0xbcb4c7a4	-0.022067852
18	0xbca5bb4b	-0.02023091
19	0x3c0ca2e1	0.008583755
20	0xba1f0660	-0.00060663186
21	0x39d7adf7	0.0004113761
22	0xbcd1625e	-0.0255596
23	0x3c466532	0.012109088
24	0xbce60479	-0.028078305
25	0xbb85edba	-0.004087177
26	0x3c6753d6	0.014119109
27	0xbc71ac8c	-0.014750611
28	0xbc5820b8	-0.0131913945
29	0xbd0c8e08	-0.03431514
30	0xbd05764d	-0.032583524
31	0xbc9a62ca	-0.018845934
32	0x3907a25a	0.00012935084
33	0xbd1d9e9d	-0.038481344
34	0xbb12c998	-0.0022397991
35	0xbc829f6d	-0.01594516
36	0x3c5b609c	0.013389733
37	0xbcad6e3d	-0.02117073
38	0x3c63e217	0.0139088845
39	0x3a277b45	0.0006388913
40	0xbc660336	-0.0140388515
41	0x3c369076	0.011142841
42	0xbc5e8551	-0.01358159
43	0xbcf51915	-0.029919187
44	0xbb93a2c2	-0.004505486
45	0xbb852797	-0.0040635574
46	0xbba3b6f5	-0.0049961754
47	0x3c251af8	0.010077231
48	0xbce21d41	-0.02760184
49	0xbc928824	-0.017887183
50	0xbcaf3a21	-0.021390023
51	0xbc00a2dc	-0.007851329
52	0xbcf2b12b	-0.029625496
53	0xbc4f9d37	-0.01267176
54	0xbcbd050c	-0.023073696
55	0x3a948940	0.0011332408
56	0xbbb1ecbf	-0.0054298337
57	0xbc0c512c	-0.008564275
58	0xbc75596e	-0.014974935
59	0xbc20920e	-0.009800447
60	0x3bfb6842	0.0076723406
61	0xbc0e460e	-0.0086836945
62	0xbc7fddb7	-0.015616826
63	0xbc41e1c4	-0.011833612
64	0x3f823609	1.017274
65	0x3f807f99	1.003894
66	0x3f7db4d9	0.99104077
67	0x3f7e66ad	0.9937542
68	0x3f7f7eb5	0.99802715
69	0x3f8151cc	1.0103087
70	0x3f795cd4	0.9740727
71	0x3f7ea30f	0.9946756
72	0x3f7b4e97	0.98166794
73	0x3f7fe3b5	0.9995683
74	0x3f821452	1.0162451
75	0x3f7d3ced	0.9892109
76	0x3f8209ff	1.01593
77	0x3f7ef629	0.9959436
78	0x3f7cc2c2	0.98734677
79	0x3f7beae5	0.98405296
80	0x3f801ed6	1.000941
81	0x3f7f0ac5	0.9962581
82	0x3f7bf579	0.98421437
83	0x3f819ac1	1.0125352
84	0x3f82d20e	1.0220354
85	0x3f7ec9dc	0.9952676
86	0x3f7a4d08	0.9777379
87	0x3f81ff6f	1.0156077
88	0x3f786c65	0.97040397
89	0x3f7ea4f2	0.99470437
90	0x3f822ba2	1.0169566
91	0x3f7da129	0.99074036
92	0x3f7d5a4e	0.9896592
93	0x3f7a0e14	0.9767773
94	0x3f77d73a	0.96812785
95	0x3f7bba35	0.98331004
96	0x3f7bc9c8	0.9835477
97	0x3f77b562	0.96761143
98	0x3f7ff62a	0.9998499
99	0x3f7aa3ba	0.97906077
100	0x3f82bb8c	1.0213485
101	0x3f78a3c3	0.9712488
102	0x3f809df6	1.0048206
103	0x3f7d3439	0.9890781
104	0x3f7b56d2	0.9817935
105	0x3f822eee	1.0170572
106	0x3f7b0349	0.9805189
107	0x3f82164c	1.0163054
108	0x3f7cd7ec	0.9876697
109	0x3f832dd4	1.0248361
110	0x3f7fa7ca	0.998654
111	0x3f83324d	1.0249726
112	0x3f7dec13	0.99188346
113	0x3f80c7b7	1.0060948
114	0x3f7e3a12	0.9930736
115	0x3f807404	1.0035405
116	0x3f82b6ae	1.0212
117	0x3f81655b	1.0109056
118	0x3f7b1343	0.98076266
119	0x3f812e59	1.0092269
120	0x3f7f92af	0.99833196
121	0x3f7b05ee	0.98055923
122	0x3f7c83bd	0.98638517
123	0x3f7fb797	0.9988951
124	0x3f8219d1	1.0164129
125	0x3f800efd	1.0004574
126	0x3f7ba67e	0.9830092
127	0x3f7ede54	0.99557996
128	0xbd120bcc	-0.03565578
129	0x3cbf7f89	0.023376243
130	0x3b20e883	0.002455265
131	0xbcb9c785	-0.022678146
132	0xbc0b7558	-0.008511864
133	0x3d2d5203	0.04231454
134	0x3c906890	0.017627984
135	0x3c99623f	0.018723605
136	0xbc5e94d7	-0.013585291
137	0xbca2babc	-0.019864433
138	0x3d06e599	0.032933805
139	0xbc4b29be	-0.012400089
140	0xbcdb0597	-0.026736064
141	0xbc1760c1	-0.0092393765
142	0x3ceaa445	0.028642783
143	0xbba92c2d	-0.005162737
144	0x3c92338f	0.01784685
145	0x3cf7c949	0.030247347
146	0x3cbbea2f	0.022938816
147	0xbca40a09	-0.020024316
148	0x3d0c3579	0.034230683
149	0xbcca9691	-0.024729999
150	0x3ccc5a74	0.024945475
151	0x3d5bb8c5	0.053643007
152	0xbb9f9581	-0.004870117
153	0x3c7f5e3f	0.015586435
154	0xbcc85e0d	-0.02445891
155	0x3d19d470	0.03755611
156	0x3cb3deac	0.021956764
157	0xbbd9be91	-0.0066450317
158	0xbc820b74	-0.015874602
159	0xbb3be98f	-0.0028673147
160	0xbc169a42	-0.009192051
161	0xbb84ae9e	-0.0040491363
162	0xbc11b539	-0.0088933045
163	0x3b86e93b	0.0041171587
164	0x3d05edc8	0.03269747
165	0x3c510c8e	0.012759341
166	0x3cba572e	0.022746649
167	0x3c2ee572	0.010674821
168	0x3b7a0e53	0.003815551
169	0x3caed098	0.0213397
170	0xbc81e430	-0.015855879
171	0x3cd7cfed	0.026344264
172	0x3b77af38	0.0037793647
173	0x3cf31fa6	0.029678177
174	0xbc5b526e	-0.013386352
175	0xbd10b102	-0.035325058
176	0x3d172ad1	0.036906067
177	0x3c5b059e	0.013368038
178	0xbcb9abec	-0.022664987
179	0x3c06f124	0.008236203
180	0x3d1520ee	0.036408357
181	0xbcfdc1f1	-0.030976268
182	0x3c3c3bfb	0.01148891
183	0xbd074107	-0.033021
184	0x3cf9a217	0.030472798
185	0xbc69556c	-0.014241558
186	0xbb4bae61	-0.003107928
187	0xbca9aa81	-0.020711185
188	0xbce59a53	-0.02802769
189	0x3cb515c4	0.022105105
190	0x3cac8270	0.021058291
191	0xbce53e84	-0.027983911
192	0x3c8bc7f0	0.017063111
193	0xbbcb5c35	-0.0062060603
194	0xbcad02d3	-0.02111951
195	0xbc797e60	-0.015227884
196	0xbca08aaf	-0.01959738
197	0x3c81e158	0.015854523
198	0xbc694337	-0.014237217
199	0xbb86bf19	-0.004112136
200	0xbcaa0a72	-0.020756934
201	0xbbcb0e02	-0.006196738
202	0x3c67dd95	0.01415195
203	0xbc6c4713	-0.014421242
204	0x3b63f448	0.0034783054
205	0xbc9e578f	-0.01932886
206	0xbcbb052f	-0.02282962
207	0xbc9d65f6	-0.019213658
208	0x3bd04cb1	0.0063567986
209	0x3ca11b49	0.01966633
210	0x3ca93233	0.02065382
211	0x3b2c9510	0.0026333965
212	0x3c865b32	0.016400907
213	0xbb51c6cd	-0.0032009364
214	0xbca6b0ab	-0.020347914
215	0x3bb9876e	0.0056618964
216	0xbd087d78	-0.03332278
217	0xbbc5d668	-0.006037522
218	0x3cab2dbc	0.020895831
219	0x3adde87d	0.0016930249
220	0x3b30c426	0.0026972382
221	0xbd01db19	-0.03170309
222	0xbca410bc	-0.02002751
223	0xbc0697ea	-0.00821493
224	0xbd20d38d	-0.03926425
225	0xbcf65c87	-0.030073417
226	0xbc2065b0	-0.009789869
227	0xbc9c6df4	-0.019095398
228	0x3cf48303	0.029847628
229	0xbd116e30	-0.035505474
230	0xbc927a4c	-0.017880581
231	0x3b2372c1	0.0024940225
232	0xbc8a2c87	-0.016866935
233	0x3c2886aa	0.010286013
234	0xbc89424c	-0.016755246
235	0x3c979c5d	0.018507177
236	0xbcd38960	-0.025822341
237	0x3ce3498c	0.02774503
238	0xbcce183f	-0.025158046
239	0x3c7bf910	0.015379205
240	0xbb21583a	-0.0024619238
241	0xbce6c5b9	-0.028170453
242	0xbc56d44a	-0.013112137
243	0xbccd329a	-0.025048543
244	0xbadd6663	-0.0016891476
245	0x3d59a58a	0.053136386
246	0xbbe4db03	-0.006984116
247	0x3cfdc434	0.030977346
248	0xbb78c428	-0.0037958715
249	0xbc57ec7b	-0.01317894
250	0xbcc64543	-0.024202948
251	0x3c20edc2	0.009822311
252	0x3cf10644	0.029421933
253	0xbb609bb4	-0.0034272494
254	0xbc8418f5	-0.016125182
255	0x3a54e45b	0.0008121186

lstm.bias_hh_l0 f4 [256]
0	0x3b9ee6b4	0.0048492793
1	0xbb14b328	-0.0022689793
2	0xbc2dd9a7	-0.010610974
3	0x3a94a2ad	0.0011339985
4	0xbc2df88b	-0.010618339
5	0x3bc504c3	0.0060125305
6	0xbd03c085	-0.032166023
7	0xbbfba190	-0.007679172
8	0xbca96167	-0.020676328
9	0xbc32a502	-0.010903599
10	0x3c234e3f	0.009967386
11	0xbc555a26	-0.013021981
12	0x3c84b9bc	0.016201846
13	0xbb995ddc	-0.0046803784
14	0xbc68d651	-0.014211253
15	0xbc94f534	-0.018183328
16	0xbbf1b0e4	-0.0073758233
17	0xbcb4c7a4	-0.022067852
18	0xbca5bb4b	-0.02023091
19	0x3c0ca2e1	0.008583755
20	0xba1f0660	-0.00060663186
21	0x39d7adf7	0.0004113761
22	0xbcd1625e	-0.0255596
23	0x3c466532	0.012109088
24	0xbce60479	-0.028078305
25	0xbb85edba	-0.004087177
26	0x3c6753d6	0.014119109
27	0xbc71ac8c	-0.014750611
28	0xbc5820b8	-0.0131913945
29	0xbd0c8e08	-0.03431514
30	0xbd05764d	-0.032583524
31	0xbc9a62ca	-0.018845934
32	0x3907a25a	0.00012935084
33	0xbd1d9e9d	-0.038481344
34	0xbb12c998	-0.0022397991
35	0xbc829f6d	-0.01594516
36	0x3c5b609c	0.013389733
37	0xbcad6e3d	-0.02117073
38	0x3c63e217	0.0139088845
39	0x3a277b45	0.0006388913
40	0xbc660336	-0.0140388515
41	0x3c369076	0.011142841
42	0xbc5e8551	-0.01358159
43	0xbcf51915	-0.029919187
44	0xbb93a2c2	-0.004505486
45	0xbb852797	-0.0040635574
46	0xbba3b6f5	-0.0049961754
47	0x3c251af8	0.010077231
48	0xbce21d41	-0.02760184
49	0xbc928824	-0.017887183
50	0xbcaf3a21	-0.021390023
51	0xbc00a2dc	-0.007851329
52	0xbcf2b12b	-0.029625496
53	0xbc4f9d37	-0.01267176
54	0xbcbd050c	-0.023073696
55	0x3a948940	0.0011332408
56	0xbbb1ecbf	-0.0054298337
57	0xbc0c512c	-0.008564275
58	0xbc75596e	-0.014974935
59	0xbc20920e	-0.009800447
60	0x3bfb6842	0.0076723406
61	0xbc0e460e	-0.0086836945
62	0xbc7fddb7	-0.015616826
63	0xbc41e1c4	-0.011833612
64	0x3f823609	1.017274
65	0x3f807f99	1.003894
66	0x3f7db4d9	0.99104077
67	0x3f7e66ad	0.9937542
68	0x3f7f7eb5	0.99802715
69	0x3f8151cc	1.0103087
70	0x3f795cd4	0.9740727
71	0x3f7ea30f	0.9946756
72	0x3f7b4e97	0.98166794
73	0x3f7fe3b5	0.9995683
74	0x3f821452	1.0162451
75	0x3f7d3ced	0.9892109
76	0x3f8209ff	1.01593
77	0x3f7ef629	0.9959436
78	0x3f7cc2c2	0.98734677
79	0x3f7beae5	0.98405296
80	0x3f801ed6	1.000941
81	0x3f7f0ac5	0.9962581
82	0x3f7bf579	0.98421437
83	0x3f819ac1	1.0125352
84	0x3f82d20e	1.0220354
85	0x3f7ec9dc	0.9952676
86	0x3f7a4d08	0.9777379
87	0x3f81ff6f	1.0156077
88	0x3f786c65	0.97040397
89	0x3f7ea4f2	0.99470437
90	0x3f822ba2	1.0169566
91	0x3f7da129	0.99074036
92	0x3f7d5a4e	0.9896592
93	0x3f7a0e14	0.9767773
94	0x3f77d73a	0.96812785
95	0x3f7bba35	0.98331004
96	0x3f7bc9c8	0.9835477
97	0x3f77b562	0.96761143
98	0x3f7ff62a	0.9998499
99	0x3f7aa3ba	0.97906077
100	0x3f82bb8c	1.0213485
101	0x3f78a3c3	0.9712488
102	0x3f809df6	1.0048206
103	0x3f7d3439	0.9890781
104	0x3f7b56d2	0.9817935
105	0x3f822eee	1.0170572
106	0x3f7b0349	0.9805189
107	0x3f82164c	1.0163054
108	0x3f7cd7ec	0.9876697
109	0x3f832dd4	1.0248361
110	0x3f7fa7ca	0.998654
111	0x3f83324d	1.0249726
112	0x3f7dec13	0.99188346
113	0x3f80c7b7	1.0060948
114	0x3f7e3a12	0.9930736
115	0x3f807404	1.0035405
116	0x3f82b6ae	1.0212
117	0x3f81655b	1.0109056
118	0x3f7b1343	0.98076266
119	0x3f812e59	1.0092269
120	0x3f7f92af	0.99833196
121	0x3f7b05ee	0.98055923
122	0x3f7c83bd	0.98638517
123	0x3f7fb797	0.9988951
124	0x3f8219d1	1.0164129
125	0x3f800efd	1.0004574
126	0x3f7ba67e	0.9830092
127	0x3f7ede54	0.99557996
128	0xbd120bcc	-0.03565578
129	0x3cbf7f89	0.023376243
130	0x3b20e883	0.002455265
131	0xbcb9c785	-0.022678146
132	0xbc0b7558	-0.008511864
133	0x3d2d5203	0.04231454
134	0x3c906890	0.017627984
135	0x3c99623f	0.018723605
136	0xbc5e94d7	-0.013585291
137	0xbca2babc	-0.019864433
138	0x3d06e599	0.032933805
139	0xbc4b29be	-0.012400089
140	0xbcdb0597	-0.026736064
141	0xbc1760c1	-0.0092393765
142	0x3ceaa445	0.028642783
143	0xbba92c2d	-0.005162737
144	0x3c92338f	0.01784685
145	0x3cf7c949	0.030247347
146	0x3cbbea2f	0.022938816
147	0xbca40a09	-0.020024316
148	0x3d0c3579	0.034230683
149	0xbcca9691	-0.024729999
150	0x3ccc5a74	0.024945475
151	0x3d5bb8c5	0.053643007
152	0xbb9f9581	-0.004870117
153	0x3c7f5e3f	0.015586435
154	0xbcc85e0d	-0.02445891
155	0x3d19d470	0.03755611
156	0x3cb3deac	0.021956764
157	0xbbd9be91	-0.0066450317
158	0xbc820b74	-0.015874602
159	0xbb3be98f	-0.0028673147
160	0xbc169a42	-0.009192051
161	0xbb84ae9e	-0.0040491363
162	0xbc11b539	-0.0088933045
163	0x3b86e93b	0.0041171587
164	0x3d05edc8	0.03269747
165	0x3c510c8e	0.012759341
166	0x3cba572e	0.022746649
167	0x3c2ee572	0.010674821
168	0x3b7a0e53	0.003815551
169	0x3caed098	0.0213397
170	0xbc81e430	-0.015855879
171	0x3cd7cfed	0.026344264
172	0x3b77af38	0.0037793647
173	0x3cf31fa6	0.029678177
174	0xbc5b526e	-0.013386352
175	0xbd10b102	-0.035325058
176	0x3d172ad1	0.036906067
177	0x3c5b059e	0.013368038
178	0xbcb9abec	-0.022664987
179	0x3c06f124	0.008236203
180	0x3d1520ee	0.036408357
181	0xbcfdc1f1	-0.030976268
182	0x3c3c3bfb	0.01148891
183	0xbd074107	-0.033021
184	0x3cf9a217	0.030472798
185	0xbc69556c	-0.014241558
186	0xbb4bae61	-0.003107928
187	0xbca9aa81	-0.020711185
188	0xbce59a53	-0.02802769
189	0x3cb515c4	0.022105105
190	0x3cac8270	0.021058291
191	0xbce53e84	-0.027983911
192	0x3c8bc7f0	0.017063111
193	0xbbcb5c35	-0.0062060603
194	0xbcad02d3	-0.02111951
195	0xbc797e60	-0.015227884
196	0xbca08aaf	-0.01959738
197	0x3c81e158	0.015854523
198	0xbc694337	-0.014237217
199	0xbb86bf19	-0.004112136
200	0xbcaa0a72	-0.020756934
201	0xbbcb0e02	-0.006196738
202	0x3c67dd95	0.01415195
203	0xbc6c4713	-0.014421242
204	0x3b63f448	0.0034783054
205	0xbc9e578f	-0.01932886
206	0xbcbb052f	-0.02282962
207	0xbc9d65f6	-0.019213658
208	0x3bd04cb1	0.0063567986
209	0x3ca11b49	0.01966633
210	0x3ca93233	0.02065382
211	0x3b2c9510	0.0026333965
212	0x3c865b32	0.016400907
213	0xbb51c6cd	-0.0032009364
214	0xbca6b0ab	-0.020347914
215	0x3bb9876e	0.0056618964
216	0xbd087d78	-0.03332278
217	0xbbc5d668	-0.006037522
218	0x3cab2dbc	0.020895831
219	0x3adde87d	0.0016930249
220	0x3b30c426	0.0026972382
221	0xbd01db19	-0.03170309
222	0xbca410bc	-0.02002751
223	0xbc0697ea	-0.00821493
224	0xbd20d38d	-0.03926425
225	0xbcf65c87	-0.030073417
226	0xbc2065b0	-0.009789869
227	0xbc9c6df4	-0.019095398
228	0x3cf48303	0.029847628
229	0xbd116e30	-0.035505474
230	0xbc927a4c	-0.017880581
231	0x3b2372c1	0.0024940225
232	0xbc8a2c87	-0.016866935
233	0x3c2886aa	0.010286013
234	0xbc89424c	-0.016755246
235	0x3c979c5d	0.018507177
236	0xbcd38960	-0.025822341
237	0x3ce3498c	0.02774503
238	0xbcce183f	-0.025158046
239	0x3c7bf910	0.015379205
240	0xbb21583a	-0.0024619238
241	0xbce6c5b9	-0.028170453
242	0xbc56d44a	-0.013112137
243	0xbccd329a	-0.025048543
244	0xbadd6663	-0.0016891476
245	0x3d59a58a	0.053136386
246	0xbbe4db03	-0.006984116
247	0x3cfdc434	0.030977346
248	0xbb78c428	-0.0037958715
249	0xbc57ec7b	-0.01317894
250	0xbcc64543	-0.024202948
251	0x3c20edc2	0.009822311
252	0x3cf10644	0.029421933
253	0xbb609bb4	-0.0034272494
254	0xbc8418f5	-0.016125182
255	0x3a54e45b	0.0008121186

lstm.weight_ih_l0_reverse f4 [256, 64]
0	0x3d903538	0.07041401
1	0x3c07c36c	0.008286338
2	0xbddc44da	-0.1075532
3	0xbe0b68c2	-0.1361418
4	0xbb3a6df5	-0.0028446887
5	0x3d35ae73	0.04435582
6	0x3df6610b	0.12030228
7	0x3e105611	0.14095332
8	0x3ba5aeef	0.005056254
9	0x3de1c866	0.11024551
10	0xbe0d8fa1	-0.13824321
11	0xbdb87209	-0.090061255
12	0xbdb7a644	-0.089672595
13	0xbd21810a	-0.039429702
14	0x3dce8271	0.100834735
15	0xbd913bb0	-0.070914626
16	0xbd85bda0	-0.06530309
17	0xbdf79703	-0.1208935
18	0x3dd60624	0.1045039
19	0x3de907ff	0.11378478
20	0x3c6f3f79	0.014602535
21	0x3da29dff	0.079402916
22	0xbcd24f91	-0.025672706
23	0x3e06d655	0.13167699
24	0xbdc200de	-0.09472822
25	0x3dd383db	0.10327884
26	0x3c85f11d	0.016350323
27	0xbc91f0b4	-0.017814972
28	0x3db8be18	0.090206325
29	0xbdce1dac	-0.10064253
30	0xbdd7c57e	-0.105357155
31	0x3d7eb026	0.062179707
32	0x3d0fb350	0.035083115
33	0x3d9bbc32	0.07604255
34	0x3d9a5a3b	0.07536741
35	0xbd33c09d	-0.043884862
36	0x3ca03f9d	0.019561583
37	0x3deb11f2	0.11478032
38	0x3dd8b091	0.10580552
39	0x3c2c1c7a	0.010504836
40	0x3cf36ce9	0.029715018
41	0xbdb64f43	-0.08901837
42	0xbde4b2af	-0.11166894
43	0x3dd0b9fa	0.10191722
44	0xbde552f5	-0.111974634
45	0xbd5cecc4	-0.053936735
46	0x3df0a897	0.11750906
47	0x3d3c6970	0.04599899
48	0x3cf1f389	0.029535072
49	0xbda2c6d8	-0.07948083
50	0x3dd31973	0.103075884
51	0xbdd73008	-0.10507208
52	0xbe02ce1c	-0.12773937
53	0xbd01e1a8	-0.031709343
54	0xbde2350d	-0.11045275
55	0xbdda45fa	-0.10657878
56	0x3cf1e26b	0.02952691
57	0xbd974505	-0.07386211
58	0x3d609ce3	0.05483712
59	0x3d5e8eb2	0.054335304
60	0x3d97d16f	0.07412993
61	0x3d8bd263	0.068272375
62	0xbc6179f8	-0.01376199
63	0x3dd31846	0.10307364
64	0xbe1c28b9	-0.1524991
65	0x3d0c667f	0.034277435
66	0x3dde6a87	0.10860162
67	0x3d5e7c8b	0.054317992
68	0x3d1d2d49	0.038373265
69	0xbd49d6c3	-0.04927708
70	0x3d56920d	0.05238538
71	0xbdfb2915	-0.12263695
72	0x3d2d035a	0.042239524
73	0xbd8e3084	-0.06942847
74	0xbd763169	-0.060105715
75	0x3d98f59e	0.07468723
76	0x3cad687f	0.021167992
77	0x3cc26de2	0.023734037
78	0xbde54b88	-0.11196047
79	0xbbed26ee	-0.007237307
80	0xbe15ff50	-0.14648175
81	0xbddb8321	-0.1071837
82	0x3d836b03	0.06416895
83	0x3c954f97	0.018226428
84	0x3c8bb0f7	0.017052157
85	0x3c04cf69	0.008106091
86	0xbcf1a0ee	-0.029495683
87	0xbd8d37d9	-0.06895418
88	0x3dd0c239	0.10193295
89	0x3d9b9d22	0.0759833
90	0x3dc0678b	0.09394749
91	0xbd711ab3	-0.058863353
92	0xbdb6a4ac	-0.089181274
93	0xbd6acc63	-0.057323825
94	0xbdc9688c	-0.09834394
95	0x3dd8f48f	0.10593521
96	0x3e119529	0.14217056
97	0x3c422f1d	0.011852053
98	0x3db5073a	0.08839269
99	0x3d840b51	0.06447471
100	0x3d625727	0.055258896
101	0xbd3ff9f1	-0.046869222
102	0x3b3b7d1b	0.0028608504
103	0xbdef62ab	-0.11688741
104	0xbe0922bd	-0.13392158
105	0xbd067019	-0.03282175
106	0xbd4aac4e	-0.04948073
107	0x3c0e8cc6	0.008700555
108	0xbdda8207	-0.10669332
109	0x3d8d4d9e	0.0689957
110	0xbd23d10a	-0.039994277
111	0xbe00ae2f	-0.12566446
112	0xbdca1f73	-0.0986928
113	0x3d54884c	0.051887795
114	0x3d99f9b3	0.075183295
115	0xbd700ace	-0.058604054
116	0xbdd6ad90	-0.10482323
117	0xbdbd94af	-0.09256875
118	0x3e07d135	0.132634
119	0xbde1b295	-0.1102039
120	0xbe19bb95	-0.15012963
121	0xbdd36a21	-0.10322977
122	0xbd99f404	-0.075172454
123	0x3cdd7f81	0.027038338
124	0xbcc92617	-0.024554295
125	0xbd877575	-0.066142
126	0x3df304e1	0.11866165
127	0x3cb71632	0.02234945
128	0xbe23b99a	-0.1598877
129	0xbd74e984	-0.05979301
130	0x3de59823	0.112106584
131	0xbd06b293	-0.032885145
132	0xbc78b91e	-0.015180854
133	0x3d7db4b8	0.061939925
134	0x3e19e757	0.15029655
135	0xbdd521cd	-0.104068376
136	0x3decf836	0.1157078
137	0x3ddf107c	0.10891816
138	0x3d5536c0	0.052054167
139	0x3e0bbf3c	0.13647169
140	0xbd0552c5	-0.03254964
141	0xbd8ced5c	-0.0688121
142	0x3db09d33	0.08623733
143	0xbe0acd56	-0.13554892
144	0x3aa19c42	0.0012329894
145	0xb94f39a9	-0.00019762538
146	0xbe20cf36	-0.15704045
147	0xbd52badb	-0.05144773
148	0xbe08b97f	-0.13352011
149	0x3cf00d39	0.02930318
150	0xbdee3b61	-0.116324194
151	0x3d68fc02	0.05688096
152	0x3de6eaba	0.11275239
153	0xbd43cc41	-0.047802214
154	0x3b8b8ca6	0.00425871
155	0x3e2305fc	0.15920252
156	0xbd8e48f9	-0.06947512
157	0x3dee45aa	0.11634381
158	0x3d8876f0	0.066633105
159	0x3d886306	0.06659512
160	0xbd59ded5	-0.053191025
161	0xbdb02941	-0.086016186
162	0xbd9b536e	-0.07584272
163	0xbd27de3e	-0.04098343
164	0xbdab3c01	-0.08361054
165	0xbdbac0d1	-0.09118808
166	0xbd8894ab	-0.06668981
167	0x3e145f3a	0.14489451
168	0xbcd466a1	-0.025927844
169	0x3d9d8d5b	0.07692977
170	0x3d430e80	0.04762125
171	0x3e0bdca7	0.13658391
172	0xbd3885aa	-0.045049347
173	0xbe0a3b97	-0.13499294
174	0x3e0bd902	0.13657
175	0x3de28b3b	0.11061712
176	0x3d7975b5	0.06090327
177	0xbe0b5efe	-0.13610455
178	0xbe04f77e	-0.12985036
179	0xbdf88ee5	-0.1213663
180	0xbde297f6	-0.110641405
181	0xbdf32e41	-0.118740566
182	0x3dc03a8f	0.09386169
183	0xbe0e3b28	-0.13889754
184	0xbd03ee82	-0.03220988
185	0xbe1dd9c5	-0.15415104
186	0xbd6e6070	-0.05819744
187	0xbdccde56	-0.10003345
188	0xbdbde5ae	-0.092723235
189	0xbd95ac49	-0.073082514
190	0x3d1560b1	0.036469165
191	0xbcd99c30	-0.026563734
192	0x3d88527f	0.0665636
193	0xbd8f3b04	-0.06993678
194	0xbdac0901	-0.08400155
195	0xbd60793c	-0.054803118
196	0xbc780ff6	-0.015140524
197	0x3d8a7b4d	0.06761799
198	0xbca365f2	-0.019946072
199	0xbe08ad3e	-0.13347337
200	0xbdb10069	-0.08642656
201	0xbe004887	-0.12527667
202	0xbc139f2b	-0.009010117
203	0xbdf6e571	-0.12055481
204	0x3d2312a4	0.0398127
205	0x3d48b0d6	0.04899677
206	0xbd3b2e7d	-0.04569863
207	0xbc7c55e7	-0.01540134
208	0xbd89f5dd	-0.06736348
209	0xbdbbba8d	-0.09166441
210	0xbd054f15	-0.03254612
211	0x3da26703	0.07929804
212	0x3bd36867	0.0064516547
213	0x3c3dce94	0.011584897
214	0x3d8cef3b	0.06881567
215	0xbdf4f225	-0.11960248
216	0x3de3feec	0.11132607
217	0xbdbc06e8	-0.09181005
218	0x3d820646	0.06348853
219	0x3cb1d8a0	0.02170974
220	0x3d12f485	0.035877723
221	0x3d879f7a	0.066222146
222	0xbd11d9a2	-0.03560794
223	0x3dfd6da6	0.123744294
224	0x3cf822b5	0.030289987
225	0xbd6fcd64	-0.058545485
226	0x3c6f5525	0.014607702
227	0x3d61a23e	0.055086367
228	0x3da2c0d4	0.07946935
229	0x3e0d5a49	0.13803972
230	0x3d26c3aa	0.040713944
231	0xbbbbf3f8	-0.0057358705
232	0xbdd20d7c	-0.10256478
233	0xbd78a599	-0.0607048
234	0xbdfad202	-0.12247087
235	0xbd6efcd2	-0.058346577
236	0xbcedbc7f	-0.029020546
237	0xbda7cb67	-0.08193093
238	0xbde94d74	-0.11391726
239	0x3e04f9ca	0.12985912
240	0x3e116387	0.14198123
241	0xbe009a03	-0.12558751
242	0x3d324ed4	0.043532208
243	0x3d7697e1	0.060203437
244	0x3e108a5b	0.14115278
245	0x3de749e7	0.11293393
246	0xbd3e618f	-0.046479758
247	0xbdea6121	-0.11444307
248	0x3dd34e9c	0.10317728
249	0x3dabd5a9	0.08390362
250	0xbdbbd08b	-0.09170636
251	0x3da003ba	0.07813211
252	0x3c2a3d8b	0.01039065
253	0x3daca582	0.084300056
254	0x3de2b729	0.11070091
255	0xbd7de3d7	-0.061984863
