outputs/lpv_sindy_FD001_20251204_080545/lpv_sindy_model.npz (npz, 14456 bytes, 3 tensors)

coefficients f8 [120, 14]
000000 46 66 83 d4 e8 b0 91 3f 22 69 4f c0 6b 4e 8d 3f
       0.017276418658047875 0.014309732252446642
000010 9b 0f 2f 33 75 95 92 3f 17 af c2 29 07 46 8a bf
       0.018148261307728935 -0.012828880273751104
000020 5e bb 33 56 19 3e 7f 3f a6 39 c0 06 33 9c 86 3f
       0.007627581569279977 0.01104011406280565
000030 1d a4 09 2e 52 b7 7e 3f ad aa 63 5a 02 fb 96 bf
       0.007499047293642949 -0.02244189907734533
000040 5a cd c1 5a 42 58 7d 3f 26 e9 78 b5 5f 03 8a 3f
       0.007164248654692196 0.012701747632594417
000050 88 57 91 33 a6 d3 93 3f 0a 51 9d 52 5b d6 7a 3f
       0.019362065217442687 0.006552082757327557
000060 46 54 86 f6 4a 64 97 bf 2d 36 81 bf 73 da 88 bf
       -0.022843524262118352 -0.01213541439224305
000070 b2 5c 49 98 4c 46 50 bf 7a f1 42 0c ca 73 64 bf
       -0.0009933231350680968 -0.0024966188667276375
000080 9e 14 b2 4d 5a 65 61 bf a3 46 fc 7e cc 3f 71 3f
       -0.002123524068852036 0.004211233914036025
000090 ce 13 e6 d6 17 6d 56 3f c4 1f d5 84 74 6c 72 3f
       0.0013687832648383472 0.004497962142814008
0000a0 00 00 00 00 00 00 00 00 39 c2 8b 3b 94 51 65 bf
       0.0 -0.002602376477050219
0000b0 b3 43 e1 7a 03 f1 72 bf 83 19 28 29 19 03 2c 3f
       -0.004624379724263261 0.00021371538294108144
0000c0 91 0d fb aa 65 c0 6b 3f 2a 43 93 36 e9 c8 4e 3f
       0.003387640543083222 0.0009394778000118887
0000d0 2b 1a a6 1a 92 5a 7c 3f ac 3a 22 94 a8 95 70 bf
       0.006922312468651752 -0.004048975477543831
0000e0 3e f7 a1 2d e4 91 69 3f 25 df 16 c8 0f eb 66 3f
       0.003121324215554915 0.0027976330026965473
0000f0 c7 0f 11 94 b4 3f 7f 3f a9 cf 15 17 89 f5 70 bf
       0.007629113563840612 -0.004140410908224292
000100 68 7c 23 ca 0f e6 72 3f 7c b6 e0 55 b4 69 61 3f
       0.004613935163631934 0.0021255991150813097
000110 56 d3 44 95 8d 0c 59 3f aa 15 13 b2 22 22 63 bf
       0.0015288717887191514 -0.002335613026476853
000120 2a 10 33 b5 f2 46 62 bf e7 2f 05 7a d7 b8 62 3f
       -0.0022310963045999626 0.0022854050186307154
000130 43 08 bc 73 9d 74 76 3f f3 80 b7 a1 2a b5 77 bf
       0.005482306525438632 -0.0057880082417513965
000140 9c 91 07 af 43 08 71 3f dc 72 6d cb b9 a6 69 bf
       0.004158272160996648 -0.0031312588502444404
000150 ff 81 64 24 30 ed 11 bf c1 43 93 16 f0 0d 8c bf
       -6.838423096101191e-05 -0.013698459328596148
000160 c7 7d 9c 39 e6 af 37 3f 1d 54 6b f8 62 78 81 bf
       0.0003614365647184006 -0.008530400472787797
000170 80 dc 9a d0 08 98 6a bf cf 42 56 14 65 3b 68 bf
       -0.0032463237920086763 -0.0029580091674648932
000180 b7 83 28 ac 94 5b 6b bf 5d 4d 14 11 cc 2f 66 3f
       -0.003339567542994772 0.0027083383253142927
000190 89 a8 38 21 a3 60 7f 3f f4 05 44 d2 73 ac 69 bf
       0.007660519815127506 -0.003133989537787535
0001a0 78 85 5b 3b 8a 93 64 3f 7f e3 98 5d dd df 74 bf
       0.002511758789169146 -0.005096306523733384
0001b0 da 67 c9 ca e3 44 78 3f 2c 6d d9 e7 c4 6e 5a 3f
       0.005925073445348839 0.0016133234888887167
0001c0 46 c3 7a 1d 80 aa 83 bf 13 98 e6 0b fa c7 72 3f
       -0.009602547549862128 0.00458524393471828
0001d0 4d df 70 0d ed 7f 80 3f 4d 4a 1d fb 93 e1 3e bf
       0.008056499455150546 -0.00047120917144131
0001e0 1d 6e ff 69 8f 59 73 bf 11 f7 9f d6 57 d7 5d 3f
       -0.004724083148143457 0.001821361331621533
0001f0 d3 31 28 d3 52 6e 63 bf d3 45 e0 8e ea 11 7d bf
       -0.0023719422981740373 -0.007097164385429139
000200 0f d7 68 12 08 6c 68 3f 62 67 b6 39 bd 5e 1e 3f
       0.0029812009481941025 0.00011585264149119098
000210 d8 01 9b ab f4 8e 67 3f eb ab dd 78 66 6d 83 3f
       0.002875783797975578 0.009486008227858242
000220 d7 4a 1e b2 5b 2d 70 3f 60 80 59 32 32 32 5f 3f
       0.003949506937618272 0.0019040575220046416
000230 1b bb b3 6e 25 11 75 bf 64 9f be 60 43 49 72 bf
       -0.005143305035047142 -0.0044644004773671565
000240 80 f5 a8 37 fc 2a 75 3f 95 51 64 19 21 32 80 3f
       0.005167947029403819 0.007908114039800998
000250 99 b0 7c 47 c6 b4 4a 3f 89 5a d9 79 61 f0 7d bf
       0.0008150070343382498 -0.007309323087233318
000260 84 2b ea f8 b8 ea 7b 3f 54 57 f0 9e 4f 0e 72 bf
       0.0068156457406399786 -0.004408179301227683
000270 38 47 76 93 2f 62 60 bf 91 19 e3 11 79 1c 45 3f
       -0.001999943658753358 0.0006442633782846476
000280 53 3e ec 92 40 b6 6b 3f 15 a6 06 f8 74 94 5d bf
       0.003382803078586774 -0.0018054144166889153
000290 00 1c 3f 61 3d ff 61 bf 50 e4 68 24 97 f1 6d 3f
       -0.002196903116757465 0.0036552383419601667
0002a0 7c cd f7 d6 f9 57 9b bf ac 6e a1 28 7b 29 7a 3f
       -0.026702789064029883 0.006387215698932341
0002b0 a9 25 30 fd d2 c8 75 3f 84 fc ce 1c 98 86 7b bf
       0.005318473983615326 -0.006720155896743244
0002c0 32 2c 88 03 07 55 94 3f ed d8 2d a2 c7 c7 88 3f
       0.019855603781291538 0.012099799763501251
0002d0 7f 0b fb 70 8c 85 6a 3f 08 c5 5b d7 9c 06 85 bf
       0.003237509059404286 -0.010266518900126545
0002e0 8d c7 13 79 2b 25 8b bf 01 7b d2 44 48 ed 87 3f
       -0.013254489548191884 0.011683048820768873
0002f0 29 52 ec 9c de c7 82 3f 72 0d ea ac 49 a4 94 bf
       0.009170283473886336 -0.02015795820126471
000300 cf bb ba 4b 1c 74 7e bf 16 97 be 39 a1 25 87 3f
       -0.007434950380839702 0.011302241873476098
000310 c5 42 ff 3f a3 72 6d bf 6d 60 87 b8 ec ef 68 3f
       -0.0035947025753347594 0.0030440925076896026
000320 45 62 aa e1 ba f6 6f 3f 27 29 26 8c 3f 12 78 3f
       0.0039018297223487896 0.005876777870421435
000330 16 44 6d a2 8d ba 83 bf f8 4c 2c 5c d4 17 13 bf
       -0.009633165854809927 -7.283433573617218e-05
000340 54 42 93 11 6d bd 45 bf 68 dc 70 b9 06 ec 51 3f
       -0.0006634504853995729 0.0010938707034833465
000350 49 fe e3 3c 38 14 7d 3f b1 60 57 5a c8 75 42 bf
       0.007099361113659671 -0.0005633571897148052
000360 95 ca bd 06 b4 d7 7b bf c9 71 28 77 b2 ac 71 3f
       -0.006797507503380947 0.0043150874430719155
000370 61 da 21 76 63 64 79 bf 9e 46 4e f5 41 6f 7c bf
       -0.006199253579430492 -0.0069420410626591916
000380 5d df 55 12 0c 68 6d 3f d3 49 1e e9 31 f6 38 bf
       0.0035896526121027964 -0.0003808853008361566
000390 bb 9e 71 f3 45 af 3c 3f 3e 80 90 98 2d 97 76 3f
       0.0004376931933109775 0.005515268429945817
0003a0 65 27 e6 8a 3b c6 70 3f b9 83 c1 62 23 f6 5e 3f
       0.004095299328023082 0.001889738613521026
0003b0 e5 27 fa 67 c3 57 5b bf 70 f4 6c 83 27 25 4b bf
       -0.0016688736213006314 -0.0008284037529403664
0003c0 0e 62 8b fd a7 83 38 bf 79 a0 fd 79 12 f2 56 bf
       -0.0003740582592804139 -0.0014004879412486111
0003d0 56 89 2a 10 72 fc 7f 3f 5e 37 90 85 47 95 90 bf
       0.007809110221076962 -0.016194455649432775
0003e0 62 0b af 5b 31 1c 81 bf ba 38 20 a9 69 b9 6f bf
       -0.008354554758516822 -0.003872591370060877
0003f0 93 1d 67 a7 a5 65 7a 3f 2f aa 9d a1 49 6b 81 3f
       0.0064445944648875595 0.008505416149735627
000400 70 6b dd d5 61 d8 80 bf 6a db ea 9d 79 56 62 bf
       -0.008225216235293792 -0.002238500149668911
000410 d5 58 a5 ba 2d 36 5c 3f c3 f3 b6 a9 0d 43 73 3f
       0.0017219015668011224 0.0047026189526464006
000420 3b f9 7b f5 5c b6 75 bf 16 8c e9 31 bb 73 3d 3f
       -0.005300868149559708 0.00044940300168699995
000430 b4 a9 31 0b aa 0d 5c bf d3 0d 60 4e d0 51 26 bf
       -0.0017122421820895241 -0.00017028491782876287
000440 6c a5 0a cc 4f c0 6f 3f 95 bb f6 e5 42 3d 7c 3f
       0.003875881055439725 0.0068943608488742
000450 bc eb 85 49 b6 a2 40 3f e9 9f b2 f0 46 89 63 3f
       0.0005076780389993078 0.0023847947646409196
000460 9e 8b f4 da aa 03 a1 3f e3 e5 7c af c5 f9 69 3f
       0.03323110506814618 0.0031708584828293736
000470 8c 20 2c 72 b3 e1 40 3f 25 3f d6 e8 ae 3e 64 3f
       0.000515186901197688 0.0024712959481759827
000480 b7 a9 65 2f ca b2 91 bf 14 90 21 b9 b8 6a 77 3f
       -0.01728359140671795 0.005717011999966121
000490 96 7b 61 65 84 d8 74 3f 31 64 85 46 99 88 53 3f
       0.005089299365947838 0.0011922356444158506
0004a0 d9 48 b2 b1 19 81 8b 3f 1a 4c b2 c5 11 a8 80 3f
       0.013429833159794334 0.0081330669839073
0004b0 a9 d4 a0 00 12 7f 60 3f 39 c9 8c 1d ab 5d a0 3f
       0.0020137168512755666 0.03196463332860095
0004c0 ad a6 7b 55 e9 69 55 bf 16 ab aa 26 ca ba 90 bf
       -0.0013069895412009356 -0.016337545976664
0004d0 d3 30 33 b9 61 2f 71 bf 2d fd d5 51 32 2e 77 bf
       -0.004195577366044217 -0.005659290848938609
0004e0 02 04 58 b5 52 53 62 bf 96 e1 2d bd 3e a5 41 3f
       -0.00223699716548298 0.0005384975760156948
0004f0 99 de a3 60 63 19 69 bf 46 9d 9d 44 65 46 2b bf
       -0.003063863846474235 -0.00020809160406119238
000500 75 6b 4f b8 df da 69 3f eb 51 84 51 38 83 66 bf
       0.003156125023890006 -0.0027481174439662934
000510 f5 fc 48 2e 62 18 63 bf 9f d1 15 f3 ff 75 50 3f
       -0.002330962905289997 0.0010046958453503241
000520 26 29 bd 3a 3a 4e 61 bf b6 17 0d 3f 3b ab 4d bf
       -0.0021124970716403122 -0.0009054221428434958
000530 05 fb 4d ec 5f 6d 6f bf e0 c4 a5 79 52 e4 70 3f
       -0.003836333608375655 0.004123994988149721
000540 05 e4 5f 20 e8 e0 31 3f d2 2a d3 d7 d2 df 86 3f
       0.00027280490064601786 0.011169097148373028
000550 d9 53 e0 1b e4 4c 71 3f 93 a3 59 82 b2 03 75 bf
       0.004223719644888179 -0.00513047914646671
000560 9e d6 fb 1e 48 12 71 3f 27 d0 24 18 d3 3d 5b 3f
       0.004167825434469611 0.001662689348973076
000570 8b 1f bb a1 57 4d 51 3f b0 78 ff 30 29 e7 6e 3f
       0.0010560375002785806 0.0037723354835029407
000580 8e 2b 71 80 aa 07 41 bf a3 d3 dc 3b 20 50 64 bf
       -0.0005197126892054636 -0.002479613262858797
000590 5f 52 ea 5f e2 a3 68 3f 2f a9 1d 33 62 40 66 3f
       0.003007833612466634 0.0027162473642664757
0005a0 f0 86 63 43 aa 5d 82 bf 13 7b bb 6a ea ca 64 bf
       -0.008967714482824601 -0.002538163991501982
0005b0 c2 25 cd 8b 7c e5 80 bf 4c 0a d8 b9 18 48 86 bf
       -0.008250210777663084 -0.01087970082426639
0005c0 b5 89 27 31 34 b2 61 bf 7e 5f e0 0f 28 21 5e bf
       -0.0021601695418535746 -0.0018389598112715506
0005d0 27 b6 c5 0a 98 cf 45 bf 65 32 e8 ff 64 c9 41 3f
       -0.0006656162636724015 0.0005428069269455936
0005e0 c8 ee c6 67 79 26 67 3f 56 de 53 dd 1b 83 73 3f
       0.0028259631346524185 0.004763707014027915
0005f0 f9 f2 4f 2d 0d 80 62 bf e9 fd c3 7a 1f 57 19 3f
       -0.002258325325327323 9.666566501564219e-05
000600 f7 bd a9 96 85 c0 5e 3f 54 97 cb a5 67 aa 79 3f
       0.0018769554686989245 0.006266026376328632
000610 e3 00 99 15 5c 5b 61 3f 0e de 8d 70 fd 67 63 3f
       0.0021187590143939435 0.002368922232957044
000620 09 5f 3c aa 2a 1c 6b 3f 2a 94 a2 f3 ca 50 53 3f
       0.003309329347654603 0.0011789304685774307
000630 17 39 b9 e3 21 79 52 bf 18 9e fe 0c 75 3d 63 bf
       -0.0011275130226696178 -0.002348641028181008
000640 4a 2d 9b 97 a0 6c 6c bf 62 df a7 36 9d e7 67 bf
       -0.0034697662893898073 -0.0029180594040062883
000650 61 ea 5b 6d 31 42 61 3f 33 41 10 4f 51 7f 53 3f
       0.0021067586302454954 0.001190022853055761
000660 24 f8 82 ea 5a 4a 63 bf b4 03 8e 63 32 b9 40 bf
       -0.002354791231566915 -0.0005103584327202843
000670 15 ef 74 a5 b4 35 74 bf 85 66 96 8a 8f e4 4f bf
       -0.0049340301987361905 -0.0009732914815458604
000680 27 9f 70 ae fb 2d 1b bf 2d 53 21 d5 88 c4 3a 3f
       -0.0001036820282115351 0.0004084428848092788
000690 01 5c a8 67 d2 9a 65 3f 80 cb 7d a1 57 39 67 3f
       0.0026373013945533157 0.002834960130650044
0006a0 47 17 ee 77 c8 e9 51 3f e4 b8 41 43 b1 dc 64 3f
       0.0010933358859985408 0.0025466406023531996
0006b0 08 6a 6c f2 6b 85 6b 3f fa 20 96 e6 2d bd 5e 3f
       0.0033595188464350424 0.0018761585473346374
0006c0 d6 07 03 a3 0d 2c 71 bf 82 58 6f bc 93 12 51 3f
       -0.004192403095830207 0.0010420267806146304
0006d0 93 33 5b 48 7d c8 6f bf 57 3b a1 f4 5d e3 35 3f
       -0.0038797804762453285 0.0003339867004158911
0006e0 d2 bc 67 4d db 1b 21 bf d4 f1 56 4a 41 da 6d 3f
       -0.00013052989989101885 0.00364411117581496
0006f0 47 e5 eb 07 50 16 82 3f 11 3d b7 16 20 26 3f bf
       0.008831620446914669 -0.0004752949086794393
000700 5b 4e 69 0d 16 ec 79 bf fb 41 91 e1 fb 70 84 3f
       -0.0063286649152192965 0.009981124707480573
000710 d6 47 b8 7e 6d f5 71 3f bb 31 b1 ce 79 cb 62 3f
       0.004384448733178522 0.0022942904520617236
000720 ae 26 8d 8e 6f 3e 78 3f 95 33 16 d9 7d 0e 55 3f
       0.00591891838923579 0.0012851933464361521
000730 65 42 40 3a 52 1c 60 bf 96 c4 57 ad 21 69 76 3f
       -0.0019666296011638267 0.005471355010272868
000740 0d 02 85 cc 1e c3 6a 3f 07 01 a5 bd b0 2b 67 3f
       0.0032668687382797546 0.0028284503906946842
000750 58 7b 02 8f 43 d7 8d 3f d1 e2 c0 b4 05 e3 95 3f
       0.014570739557084586 0.021373833806339008
000760 6b 97 80 60 11 e9 61 bf 92 97 16 37 2e 49 72 3f
       -0.0021863307374755856 0.004464321640090934
000770 ac 05 86 70 c8 8b 63 3f 14 41 5d 78 40 04 50 3f
       0.002385989650236472 0.0009775762168438605
000780 2e 01 01 cc f3 de 60 3f 74 b8 45 6d 14 3a 63 bf
       0.002059436956216263 -0.002347030540639722
000790 2e 23 30 dc ec a8 6a 3f d9 68 40 9e 99 91 6f 3f
       0.0032543779539121664 0.0038536072115792183
0007a0 d2 19 c8 fa 8c f5 41 bf c3 63 06 03 08 4b 79 bf
       -0.0005480707528143175 -0.006175071045071814
0007b0 ff 1b 89 3c 33 d2 7f 3f e8 19 22 9b bd a8 4f bf
       0.0077688218521592125 -0.0009661603746884935
0007c0 9a 02 71 20 f7 21 86 bf 67 d8 79 7f e2 b0 78 bf
       -0.010806971242460595 -0.006028065450314291
0007d0 88 14 ca a1 04 3b 5e 3f dd dd 2b fc f2 7d 95 3f
       0.001845125697543611 0.02098827041751671
0007e0 df 34 da c3 61 d5 15 3f e0 e9 83 41 e3 df 95 bf
       8.32882805871962e-05 -0.021361876367317012
0007f0 fa 0e 43 9c 24 c7 50 3f 5e 8c b9 24 f4 26 6a 3f
       0.0010240418933315496 0.0031924026896362053

residual_mean f8 [14]
000000 10 74 60 da 21 30 a7 3e 7b e6 3a 5b c9 34 a3 3e
       6.91056744942335e-07 5.723892883759151e-07
000010 5f 3e 61 f1 b1 5b a8 3e ee b7 56 3d f8 37 a1 be
       7.25930450648807e-07 -5.131552095938191e-07
000020 28 c3 54 56 a2 79 94 3e 2b 5c 35 66 b5 a2 9d 3e
       3.05103262060327e-07 4.416045611041476e-07
000030 7a 2c ef 58 4e 21 94 3e 5a 71 05 50 fa 1e ae be
       2.9996189082328365e-07 -8.976759602697031e-07
000040 a9 a1 d8 f2 3b 3b 93 3e c1 6a ba 88 49 0c a1 3e
       2.865699454146202e-07 5.080699038874162e-07
000050 a6 4d ab 43 c1 fc a9 3e 08 ee ef 95 8e 96 91 3e
       7.744826072360552e-07 2.620833096653515e-07
000060 91 a2 0a a3 f9 a8 ae be a3 36 02 56 b2 49 a0 be
       -9.137409674081153e-07 -4.854165745069959e-07

residual_std f8 [14]
000000 12 7a 95 80 4d f6 ed 3f 7c 87 88 34 0b 40 ef 3f
       0.9363162528423479 0.9765678430596689
000010 bc fa 99 6f 92 30 e8 3f 8a 47 47 c5 46 be e8 3f
       0.755929201099057 0.7732271054357949
000020 ad b0 c9 37 05 92 e7 3f 68 35 8e 95 4b 56 e0 3f
       0.7365747537237631 0.5105340882306963
000030 09 d1 61 c6 15 05 e6 3f a8 a7 d1 c8 bb 03 e7 3f
       0.6881207346582708 0.719205753540554
000040 9c 14 01 1c 4f 86 e7 3f ce eb 77 68 fb dc df 3f
       0.7351451441724239 0.4978626747321727
000050 f1 0c e4 15 9a 55 eb 3f d2 e5 39 97 74 06 ee 3f
       0.8541994502596976 0.9382880166660306
000060 5f d0 61 bb 02 2e ec 3f b5 b7 38 3a f1 d7 eb 3f
       0.8806165370756495 0.8701101433887205
